{
  "nodes": [
    {
      "op": "null", 
      "name": "data", 
      "inputs": []
    }, 
    {
      "op": "_copy", 
      "name": "id", 
      "inputs": [[0, 0, 0]]
    }, 
    {
      "op": "_minus_scalar", 
      "name": "_minusscalar0", 
      "attrs": {"scalar": "127.5"}, 
      "inputs": [[1, 0, 0]]
    }, 
    {
      "op": "_mul_scalar", 
      "name": "_mulscalar0", 
      "attrs": {"scalar": "0.0078125"}, 
      "inputs": [[2, 0, 0]]
    }, 
    {
      "op": "null", 
      "name": "vargface_head_conv1_weight", 
      "attrs": {
        "kernel": "(3, 3)", 
        "no_bias": "True", 
        "num_filter": "40", 
        "num_group": "1", 
        "pad": "(1, 1)", 
        "stride": "(1, 1)", 
        "workspace": "256"
      }, 
      "inputs": []
    }, 
    {
      "op": "Convolution", 
      "name": "vargface_head_conv1", 
      "attrs": {
        "kernel": "(3, 3)", 
        "no_bias": "True", 
        "num_filter": "40", 
        "num_group": "1", 
        "pad": "(1, 1)", 
        "stride": "(1, 1)", 
        "workspace": "256"
      }, 
      "inputs": [[3, 0, 0], [4, 0, 0]]
    }, 
    {
      "op": "null", 
      "name": "vargface_head_conv1_bn_gamma", 
      "attrs": {
        "eps": "2e-05", 
        "fix_gamma": "False", 
        "momentum": "0.9", 
        "use_global_stats": "False"
      }, 
      "inputs": []
    }, 
    {
      "op": "null", 
      "name": "vargface_head_conv1_bn_beta", 
      "attrs": {
        "eps": "2e-05", 
        "fix_gamma": "False", 
        "momentum": "0.9", 
        "use_global_stats": "False"
      }, 
      "inputs": []
    }, 
    {
      "op": "null", 
      "name": "vargface_head_conv1_bn_moving_mean", 
      "attrs": {
        "__init__": "[\"zero\", {}]", 
        "eps": "2e-05", 
        "fix_gamma": "False", 
        "momentum": "0.9", 
        "use_global_stats": "False"
      }, 
      "inputs": []
    }, 
    {
      "op": "null", 
      "name": "vargface_head_conv1_bn_moving_var", 
      "attrs": {
        "__init__": "[\"one\", {}]", 
        "eps": "2e-05", 
        "fix_gamma": "False", 
        "momentum": "0.9", 
        "use_global_stats": "False"
      }, 
      "inputs": []
    }, 
    {
      "op": "BatchNorm", 
      "name": "vargface_head_conv1_bn", 
      "attrs": {
        "eps": "2e-05", 
        "fix_gamma": "False", 
        "momentum": "0.9", 
        "use_global_stats": "False"
      }, 
      "inputs": [[5, 0, 0], [6, 0, 0], [7, 0, 0], [8, 0, 1], [9, 0, 1]]
    }, 
    {
      "op": "null", 
      "name": "vargface_head_conv1_act_gamma", 
      "attrs": {
        "__init__": "[\"Constant\", {\"value\": 0.25}]", 
        "act_type": "prelu"
      }, 
      "inputs": []
    }, 
    {
      "op": "LeakyReLU", 
      "name": "vargface_head_conv1_act", 
      "attrs": {"act_type": "prelu"}, 
      "inputs": [[10, 0, 0], [11, 0, 0]]
    }, 
    {
      "op": "null", 
      "name": "vargface_head_head_pooling_sep1_data_conv2d_depthwise_weight", 
      "attrs": {
        "dilate": "(1, 1)", 
        "kernel": "(3, 3)", 
        "no_bias": "True", 
        "num_filter": "40", 
        "num_group": "5", 
        "pad": "(1, 1)", 
        "stride": "(2, 2)", 
        "workspace": "256"
      }, 
      "inputs": []
    }, 
    {
      "op": "Convolution", 
      "name": "vargface_head_head_pooling_sep1_data_conv2d_depthwise", 
      "attrs": {
        "dilate": "(1, 1)", 
        "kernel": "(3, 3)", 
        "no_bias": "True", 
        "num_filter": "40", 
        "num_group": "5", 
        "pad": "(1, 1)", 
        "stride": "(2, 2)", 
        "workspace": "256"
      }, 
      "inputs": [[12, 0, 0], [13, 0, 0]]
    }, 
    {
      "op": "null", 
      "name": "vargface_head_head_pooling_sep1_data_conv2d_depthwise_bn_gamma", 
      "attrs": {
        "eps": "2e-05", 
        "fix_gamma": "False", 
        "momentum": "0.9", 
        "use_global_stats": "False"
      }, 
      "inputs": []
    }, 
    {
      "op": "null", 
      "name": "vargface_head_head_pooling_sep1_data_conv2d_depthwise_bn_beta", 
      "attrs": {
        "eps": "2e-05", 
        "fix_gamma": "False", 
        "momentum": "0.9", 
        "use_global_stats": "False"
      }, 
      "inputs": []
    }, 
    {
      "op": "null", 
      "name": "vargface_head_head_pooling_sep1_data_conv2d_depthwise_bn_moving_mean", 
      "attrs": {
        "__init__": "[\"zero\", {}]", 
        "eps": "2e-05", 
        "fix_gamma": "False", 
        "momentum": "0.9", 
        "use_global_stats": "False"
      }, 
      "inputs": []
    }, 
    {
      "op": "null", 
      "name": "vargface_head_head_pooling_sep1_data_conv2d_depthwise_bn_moving_var", 
      "attrs": {
        "__init__": "[\"one\", {}]", 
        "eps": "2e-05", 
        "fix_gamma": "False", 
        "momentum": "0.9", 
        "use_global_stats": "False"
      }, 
      "inputs": []
    }, 
    {
      "op": "BatchNorm", 
      "name": "vargface_head_head_pooling_sep1_data_conv2d_depthwise_bn", 
      "attrs": {
        "eps": "2e-05", 
        "fix_gamma": "False", 
        "momentum": "0.9", 
        "use_global_stats": "False"
      }, 
      "inputs": [[14, 0, 0], [15, 0, 0], [16, 0, 0], [17, 0, 1], [18, 0, 1]]
    }, 
    {
      "op": "null", 
      "name": "vargface_head_head_pooling_sep1_data_conv2d_depthwise_act_gamma", 
      "attrs": {
        "__init__": "[\"Constant\", {\"value\": 0.25}]", 
        "act_type": "prelu"
      }, 
      "inputs": []
    }, 
    {
      "op": "LeakyReLU", 
      "name": "vargface_head_head_pooling_sep1_data_conv2d_depthwise_act", 
      "attrs": {"act_type": "prelu"}, 
      "inputs": [[19, 0, 0], [20, 0, 0]]
    }, 
    {
      "op": "null", 
      "name": "vargface_head_head_pooling_sep1_data_conv2d_pointwise_weight", 
      "attrs": {
        "kernel": "(1, 1)", 
        "no_bias": "True", 
        "num_filter": "40", 
        "num_group": "1", 
        "pad": "(0, 0)", 
        "stride": "(1, 1)", 
        "workspace": "256"
      }, 
      "inputs": []
    }, 
    {
      "op": "Convolution", 
      "name": "vargface_head_head_pooling_sep1_data_conv2d_pointwise", 
      "attrs": {
        "kernel": "(1, 1)", 
        "no_bias": "True", 
        "num_filter": "40", 
        "num_group": "1", 
        "pad": "(0, 0)", 
        "stride": "(1, 1)", 
        "workspace": "256"
      }, 
      "inputs": [[21, 0, 0], [22, 0, 0]]
    }, 
    {
      "op": "null", 
      "name": "vargface_head_head_pooling_sep1_data_conv2d_pointwise_bn_gamma", 
      "attrs": {
        "eps": "2e-05", 
        "fix_gamma": "False", 
        "momentum": "0.9", 
        "use_global_stats": "False"
      }, 
      "inputs": []
    }, 
    {
      "op": "null", 
      "name": "vargface_head_head_pooling_sep1_data_conv2d_pointwise_bn_beta", 
      "attrs": {
        "eps": "2e-05", 
        "fix_gamma": "False", 
        "momentum": "0.9", 
        "use_global_stats": "False"
      }, 
      "inputs": []
    }, 
    {
      "op": "null", 
      "name": "vargface_head_head_pooling_sep1_data_conv2d_pointwise_bn_moving_mean", 
      "attrs": {
        "__init__": "[\"zero\", {}]", 
        "eps": "2e-05", 
        "fix_gamma": "False", 
        "momentum": "0.9", 
        "use_global_stats": "False"
      }, 
      "inputs": []
    }, 
    {
      "op": "null", 
      "name": "vargface_head_head_pooling_sep1_data_conv2d_pointwise_bn_moving_var", 
      "attrs": {
        "__init__": "[\"one\", {}]", 
        "eps": "2e-05", 
        "fix_gamma": "False", 
        "momentum": "0.9", 
        "use_global_stats": "False"
      }, 
      "inputs": []
    }, 
    {
      "op": "BatchNorm", 
      "name": "vargface_head_head_pooling_sep1_data_conv2d_pointwise_bn", 
      "attrs": {
        "eps": "2e-05", 
        "fix_gamma": "False", 
        "momentum": "0.9", 
        "use_global_stats": "False"
      }, 
      "inputs": [[23, 0, 0], [24, 0, 0], [25, 0, 0], [26, 0, 1], [27, 0, 1]]
    }, 
    {
      "op": "null", 
      "name": "vargface_head_head_pooling_sep1_data_conv2d_pointwise_act_gamma", 
      "attrs": {
        "__init__": "[\"Constant\", {\"value\": 0.25}]", 
        "act_type": "prelu"
      }, 
      "inputs": []
    }, 
    {
      "op": "LeakyReLU", 
      "name": "vargface_head_head_pooling_sep1_data_conv2d_pointwise_act", 
      "attrs": {"act_type": "prelu"}, 
      "inputs": [[28, 0, 0], [29, 0, 0]]
    }, 
    {
      "op": "null", 
      "name": "vargface_head_head_pooling_sep2_data_conv2d_depthwise_weight", 
      "attrs": {
        "dilate": "(1, 1)", 
        "kernel": "(3, 3)", 
        "no_bias": "True", 
        "num_filter": "40", 
        "num_group": "5", 
        "pad": "(1, 1)", 
        "stride": "(1, 1)", 
        "workspace": "256"
      }, 
      "inputs": []
    }, 
    {
      "op": "Convolution", 
      "name": "vargface_head_head_pooling_sep2_data_conv2d_depthwise", 
      "attrs": {
        "dilate": "(1, 1)", 
        "kernel": "(3, 3)", 
        "no_bias": "True", 
        "num_filter": "40", 
        "num_group": "5", 
        "pad": "(1, 1)", 
        "stride": "(1, 1)", 
        "workspace": "256"
      }, 
      "inputs": [[30, 0, 0], [31, 0, 0]]
    }, 
    {
      "op": "null", 
      "name": "vargface_head_head_pooling_sep2_data_conv2d_depthwise_bn_gamma", 
      "attrs": {
        "eps": "2e-05", 
        "fix_gamma": "False", 
        "momentum": "0.9", 
        "use_global_stats": "False"
      }, 
      "inputs": []
    }, 
    {
      "op": "null", 
      "name": "vargface_head_head_pooling_sep2_data_conv2d_depthwise_bn_beta", 
      "attrs": {
        "eps": "2e-05", 
        "fix_gamma": "False", 
        "momentum": "0.9", 
        "use_global_stats": "False"
      }, 
      "inputs": []
    }, 
    {
      "op": "null", 
      "name": "vargface_head_head_pooling_sep2_data_conv2d_depthwise_bn_moving_mean", 
      "attrs": {
        "__init__": "[\"zero\", {}]", 
        "eps": "2e-05", 
        "fix_gamma": "False", 
        "momentum": "0.9", 
        "use_global_stats": "False"
      }, 
      "inputs": []
    }, 
    {
      "op": "null", 
      "name": "vargface_head_head_pooling_sep2_data_conv2d_depthwise_bn_moving_var", 
      "attrs": {
        "__init__": "[\"one\", {}]", 
        "eps": "2e-05", 
        "fix_gamma": "False", 
        "momentum": "0.9", 
        "use_global_stats": "False"
      }, 
      "inputs": []
    }, 
    {
      "op": "BatchNorm", 
      "name": "vargface_head_head_pooling_sep2_data_conv2d_depthwise_bn", 
      "attrs": {
        "eps": "2e-05", 
        "fix_gamma": "False", 
        "momentum": "0.9", 
        "use_global_stats": "False"
      }, 
      "inputs": [[32, 0, 0], [33, 0, 0], [34, 0, 0], [35, 0, 1], [36, 0, 1]]
    }, 
    {
      "op": "null", 
      "name": "vargface_head_head_pooling_sep2_data_conv2d_depthwise_act_gamma", 
      "attrs": {
        "__init__": "[\"Constant\", {\"value\": 0.25}]", 
        "act_type": "prelu"
      }, 
      "inputs": []
    }, 
    {
      "op": "LeakyReLU", 
      "name": "vargface_head_head_pooling_sep2_data_conv2d_depthwise_act", 
      "attrs": {"act_type": "prelu"}, 
      "inputs": [[37, 0, 0], [38, 0, 0]]
    }, 
    {
      "op": "null", 
      "name": "vargface_head_head_pooling_sep2_data_conv2d_pointwise_weight", 
      "attrs": {
        "kernel": "(1, 1)", 
        "no_bias": "True", 
        "num_filter": "40", 
        "num_group": "1", 
        "pad": "(0, 0)", 
        "stride": "(1, 1)", 
        "workspace": "256"
      }, 
      "inputs": []
    }, 
    {
      "op": "Convolution", 
      "name": "vargface_head_head_pooling_sep2_data_conv2d_pointwise", 
      "attrs": {
        "kernel": "(1, 1)", 
        "no_bias": "True", 
        "num_filter": "40", 
        "num_group": "1", 
        "pad": "(0, 0)", 
        "stride": "(1, 1)", 
        "workspace": "256"
      }, 
      "inputs": [[39, 0, 0], [40, 0, 0]]
    }, 
    {
      "op": "null", 
      "name": "vargface_head_head_pooling_sep2_data_conv2d_pointwise_bn_gamma", 
      "attrs": {
        "eps": "2e-05", 
        "fix_gamma": "False", 
        "momentum": "0.9", 
        "use_global_stats": "False"
      }, 
      "inputs": []
    }, 
    {
      "op": "null", 
      "name": "vargface_head_head_pooling_sep2_data_conv2d_pointwise_bn_beta", 
      "attrs": {
        "eps": "2e-05", 
        "fix_gamma": "False", 
        "momentum": "0.9", 
        "use_global_stats": "False"
      }, 
      "inputs": []
    }, 
    {
      "op": "null", 
      "name": "vargface_head_head_pooling_sep2_data_conv2d_pointwise_bn_moving_mean", 
      "attrs": {
        "__init__": "[\"zero\", {}]", 
        "eps": "2e-05", 
        "fix_gamma": "False", 
        "momentum": "0.9", 
        "use_global_stats": "False"
      }, 
      "inputs": []
    }, 
    {
      "op": "null", 
      "name": "vargface_head_head_pooling_sep2_data_conv2d_pointwise_bn_moving_var", 
      "attrs": {
        "__init__": "[\"one\", {}]", 
        "eps": "2e-05", 
        "fix_gamma": "False", 
        "momentum": "0.9", 
        "use_global_stats": "False"
      }, 
      "inputs": []
    }, 
    {
      "op": "BatchNorm", 
      "name": "vargface_head_head_pooling_sep2_data_conv2d_pointwise_bn", 
      "attrs": {
        "eps": "2e-05", 
        "fix_gamma": "False", 
        "momentum": "0.9", 
        "use_global_stats": "False"
      }, 
      "inputs": [[41, 0, 0], [42, 0, 0], [43, 0, 0], [44, 0, 1], [45, 0, 1]]
    }, 
    {
      "op": "null", 
      "name": "vargface_head_head_pooling_shortcut_conv2d_depthwise_weight", 
      "attrs": {
        "dilate": "(1, 1)", 
        "kernel": "(3, 3)", 
        "no_bias": "True", 
        "num_filter": "40", 
        "num_group": "5", 
        "pad": "(1, 1)", 
        "stride": "(2, 2)", 
        "workspace": "256"
      }, 
      "inputs": []
    }, 
    {
      "op": "Convolution", 
      "name": "vargface_head_head_pooling_shortcut_conv2d_depthwise", 
      "attrs": {
        "dilate": "(1, 1)", 
        "kernel": "(3, 3)", 
        "no_bias": "True", 
        "num_filter": "40", 
        "num_group": "5", 
        "pad": "(1, 1)", 
        "stride": "(2, 2)", 
        "workspace": "256"
      }, 
      "inputs": [[12, 0, 0], [47, 0, 0]]
    }, 
    {
      "op": "null", 
      "name": "vargface_head_head_pooling_shortcut_conv2d_depthwise_bn_gamma", 
      "attrs": {
        "eps": "2e-05", 
        "fix_gamma": "False", 
        "momentum": "0.9", 
        "use_global_stats": "False"
      }, 
      "inputs": []
    }, 
    {
      "op": "null", 
      "name": "vargface_head_head_pooling_shortcut_conv2d_depthwise_bn_beta", 
      "attrs": {
        "eps": "2e-05", 
        "fix_gamma": "False", 
        "momentum": "0.9", 
        "use_global_stats": "False"
      }, 
      "inputs": []
    }, 
    {
      "op": "null", 
      "name": "vargface_head_head_pooling_shortcut_conv2d_depthwise_bn_moving_mean", 
      "attrs": {
        "__init__": "[\"zero\", {}]", 
        "eps": "2e-05", 
        "fix_gamma": "False", 
        "momentum": "0.9", 
        "use_global_stats": "False"
      }, 
      "inputs": []
    }, 
    {
      "op": "null", 
      "name": "vargface_head_head_pooling_shortcut_conv2d_depthwise_bn_moving_var", 
      "attrs": {
        "__init__": "[\"one\", {}]", 
        "eps": "2e-05", 
        "fix_gamma": "False", 
        "momentum": "0.9", 
        "use_global_stats": "False"
      }, 
      "inputs": []
    }, 
    {
      "op": "BatchNorm", 
      "name": "vargface_head_head_pooling_shortcut_conv2d_depthwise_bn", 
      "attrs": {
        "eps": "2e-05", 
        "fix_gamma": "False", 
        "momentum": "0.9", 
        "use_global_stats": "False"
      }, 
      "inputs": [[48, 0, 0], [49, 0, 0], [50, 0, 0], [51, 0, 1], [52, 0, 1]]
    }, 
    {
      "op": "null", 
      "name": "vargface_head_head_pooling_shortcut_conv2d_depthwise_act_gamma", 
      "attrs": {
        "__init__": "[\"Constant\", {\"value\": 0.25}]", 
        "act_type": "prelu"
      }, 
      "inputs": []
    }, 
    {
      "op": "LeakyReLU", 
      "name": "vargface_head_head_pooling_shortcut_conv2d_depthwise_act", 
      "attrs": {"act_type": "prelu"}, 
      "inputs": [[53, 0, 0], [54, 0, 0]]
    }, 
    {
      "op": "null", 
      "name": "vargface_head_head_pooling_shortcut_conv2d_pointwise_weight", 
      "attrs": {
        "kernel": "(1, 1)", 
        "no_bias": "True", 
        "num_filter": "40", 
        "num_group": "1", 
        "pad": "(0, 0)", 
        "stride": "(1, 1)", 
        "workspace": "256"
      }, 
      "inputs": []
    }, 
    {
      "op": "Convolution", 
      "name": "vargface_head_head_pooling_shortcut_conv2d_pointwise", 
      "attrs": {
        "kernel": "(1, 1)", 
        "no_bias": "True", 
        "num_filter": "40", 
        "num_group": "1", 
        "pad": "(0, 0)", 
        "stride": "(1, 1)", 
        "workspace": "256"
      }, 
      "inputs": [[55, 0, 0], [56, 0, 0]]
    }, 
    {
      "op": "null", 
      "name": "vargface_head_head_pooling_shortcut_conv2d_pointwise_bn_gamma", 
      "attrs": {
        "eps": "2e-05", 
        "fix_gamma": "False", 
        "momentum": "0.9", 
        "use_global_stats": "False"
      }, 
      "inputs": []
    }, 
    {
      "op": "null", 
      "name": "vargface_head_head_pooling_shortcut_conv2d_pointwise_bn_beta", 
      "attrs": {
        "eps": "2e-05", 
        "fix_gamma": "False", 
        "momentum": "0.9", 
        "use_global_stats": "False"
      }, 
      "inputs": []
    }, 
    {
      "op": "null", 
      "name": "vargface_head_head_pooling_shortcut_conv2d_pointwise_bn_moving_mean", 
      "attrs": {
        "__init__": "[\"zero\", {}]", 
        "eps": "2e-05", 
        "fix_gamma": "False", 
        "momentum": "0.9", 
        "use_global_stats": "False"
      }, 
      "inputs": []
    }, 
    {
      "op": "null", 
      "name": "vargface_head_head_pooling_shortcut_conv2d_pointwise_bn_moving_var", 
      "attrs": {
        "__init__": "[\"one\", {}]", 
        "eps": "2e-05", 
        "fix_gamma": "False", 
        "momentum": "0.9", 
        "use_global_stats": "False"
      }, 
      "inputs": []
    }, 
    {
      "op": "BatchNorm", 
      "name": "vargface_head_head_pooling_shortcut_conv2d_pointwise_bn", 
      "attrs": {
        "eps": "2e-05", 
        "fix_gamma": "False", 
        "momentum": "0.9", 
        "use_global_stats": "False"
      }, 
      "inputs": [[57, 0, 0], [58, 0, 0], [59, 0, 0], [60, 0, 1], [61, 0, 1]]
    }, 
    {
      "op": "elemwise_add", 
      "name": "_plus0", 
      "inputs": [[46, 0, 0], [62, 0, 0]]
    }, 
    {
      "op": "null", 
      "name": "vargface_head_head_pooling_out_data_act_gamma", 
      "attrs": {
        "__init__": "[\"Constant\", {\"value\": 0.25}]", 
        "act_type": "prelu"
      }, 
      "inputs": []
    }, 
    {
      "op": "LeakyReLU", 
      "name": "vargface_head_head_pooling_out_data_act", 
      "attrs": {"act_type": "prelu"}, 
      "inputs": [[63, 0, 0], [64, 0, 0]]
    }, 
    {
      "op": "null", 
      "name": "vargface_stage_2_unit_1_sep1_data_branch_conv2d_depthwise_weight", 
      "attrs": {
        "dilate": "(1, 1)", 
        "kernel": "(3, 3)", 
        "no_bias": "True", 
        "num_filter": "80", 
        "num_group": "5", 
        "pad": "(1, 1)", 
        "stride": "(2, 2)", 
        "workspace": "256"
      }, 
      "inputs": []
    }, 
    {
      "op": "Convolution", 
      "name": "vargface_stage_2_unit_1_sep1_data_branch_conv2d_depthwise", 
      "attrs": {
        "dilate": "(1, 1)", 
        "kernel": "(3, 3)", 
        "no_bias": "True", 
        "num_filter": "80", 
        "num_group": "5", 
        "pad": "(1, 1)", 
        "stride": "(2, 2)", 
        "workspace": "256"
      }, 
      "inputs": [[65, 0, 0], [66, 0, 0]]
    }, 
    {
      "op": "null", 
      "name": "vargface_stage_2_unit_1_sep1_data_branch_conv2d_depthwise_bn_gamma", 
      "attrs": {
        "eps": "2e-05", 
        "fix_gamma": "False", 
        "momentum": "0.9", 
        "use_global_stats": "False"
      }, 
      "inputs": []
    }, 
    {
      "op": "null", 
      "name": "vargface_stage_2_unit_1_sep1_data_branch_conv2d_depthwise_bn_beta", 
      "attrs": {
        "eps": "2e-05", 
        "fix_gamma": "False", 
        "momentum": "0.9", 
        "use_global_stats": "False"
      }, 
      "inputs": []
    }, 
    {
      "op": "null", 
      "name": "vargface_stage_2_unit_1_sep1_data_branch_conv2d_depthwise_bn_moving_mean", 
      "attrs": {
        "__init__": "[\"zero\", {}]", 
        "eps": "2e-05", 
        "fix_gamma": "False", 
        "momentum": "0.9", 
        "use_global_stats": "False"
      }, 
      "inputs": []
    }, 
    {
      "op": "null", 
      "name": "vargface_stage_2_unit_1_sep1_data_branch_conv2d_depthwise_bn_moving_var", 
      "attrs": {
        "__init__": "[\"one\", {}]", 
        "eps": "2e-05", 
        "fix_gamma": "False", 
        "momentum": "0.9", 
        "use_global_stats": "False"
      }, 
      "inputs": []
    }, 
    {
      "op": "BatchNorm", 
      "name": "vargface_stage_2_unit_1_sep1_data_branch_conv2d_depthwise_bn", 
      "attrs": {
        "eps": "2e-05", 
        "fix_gamma": "False", 
        "momentum": "0.9", 
        "use_global_stats": "False"
      }, 
      "inputs": [[67, 0, 0], [68, 0, 0], [69, 0, 0], [70, 0, 1], [71, 0, 1]]
    }, 
    {
      "op": "null", 
      "name": "vargface_stage_2_unit_1_sep1_data_branch_conv2d_depthwise_act_gamma", 
      "attrs": {
        "__init__": "[\"Constant\", {\"value\": 0.25}]", 
        "act_type": "prelu"
      }, 
      "inputs": []
    }, 
    {
      "op": "LeakyReLU", 
      "name": "vargface_stage_2_unit_1_sep1_data_branch_conv2d_depthwise_act", 
      "attrs": {"act_type": "prelu"}, 
      "inputs": [[72, 0, 0], [73, 0, 0]]
    }, 
    {
      "op": "null", 
      "name": "vargface_stage_2_unit_1_sep1_data_branch_conv2d_pointwise_weight", 
      "attrs": {
        "kernel": "(1, 1)", 
        "no_bias": "True", 
        "num_filter": "80", 
        "num_group": "1", 
        "pad": "(0, 0)", 
        "stride": "(1, 1)", 
        "workspace": "256"
      }, 
      "inputs": []
    }, 
    {
      "op": "Convolution", 
      "name": "vargface_stage_2_unit_1_sep1_data_branch_conv2d_pointwise", 
      "attrs": {
        "kernel": "(1, 1)", 
        "no_bias": "True", 
        "num_filter": "80", 
        "num_group": "1", 
        "pad": "(0, 0)", 
        "stride": "(1, 1)", 
        "workspace": "256"
      }, 
      "inputs": [[74, 0, 0], [75, 0, 0]]
    }, 
    {
      "op": "null", 
      "name": "vargface_stage_2_unit_1_sep1_data_branch_conv2d_pointwise_bn_gamma", 
      "attrs": {
        "eps": "2e-05", 
        "fix_gamma": "False", 
        "momentum": "0.9", 
        "use_global_stats": "False"
      }, 
      "inputs": []
    }, 
    {
      "op": "null", 
      "name": "vargface_stage_2_unit_1_sep1_data_branch_conv2d_pointwise_bn_beta", 
      "attrs": {
        "eps": "2e-05", 
        "fix_gamma": "False", 
        "momentum": "0.9", 
        "use_global_stats": "False"
      }, 
      "inputs": []
    }, 
    {
      "op": "null", 
      "name": "vargface_stage_2_unit_1_sep1_data_branch_conv2d_pointwise_bn_moving_mean", 
      "attrs": {
        "__init__": "[\"zero\", {}]", 
        "eps": "2e-05", 
        "fix_gamma": "False", 
        "momentum": "0.9", 
        "use_global_stats": "False"
      }, 
      "inputs": []
    }, 
    {
      "op": "null", 
      "name": "vargface_stage_2_unit_1_sep1_data_branch_conv2d_pointwise_bn_moving_var", 
      "attrs": {
        "__init__": "[\"one\", {}]", 
        "eps": "2e-05", 
        "fix_gamma": "False", 
        "momentum": "0.9", 
        "use_global_stats": "False"
      }, 
      "inputs": []
    }, 
    {
      "op": "BatchNorm", 
      "name": "vargface_stage_2_unit_1_sep1_data_branch_conv2d_pointwise_bn", 
      "attrs": {
        "eps": "2e-05", 
        "fix_gamma": "False", 
        "momentum": "0.9", 
        "use_global_stats": "False"
      }, 
      "inputs": [[76, 0, 0], [77, 0, 0], [78, 0, 0], [79, 0, 1], [80, 0, 1]]
    }, 
    {
      "op": "null", 
      "name": "vargface_stage_2_unit_1_sep2_data_branch_conv2d_depthwise_weight", 
      "attrs": {
        "dilate": "(1, 1)", 
        "kernel": "(3, 3)", 
        "no_bias": "True", 
        "num_filter": "80", 
        "num_group": "5", 
        "pad": "(1, 1)", 
        "stride": "(2, 2)", 
        "workspace": "256"
      }, 
      "inputs": []
    }, 
    {
      "op": "Convolution", 
      "name": "vargface_stage_2_unit_1_sep2_data_branch_conv2d_depthwise", 
      "attrs": {
        "dilate": "(1, 1)", 
        "kernel": "(3, 3)", 
        "no_bias": "True", 
        "num_filter": "80", 
        "num_group": "5", 
        "pad": "(1, 1)", 
        "stride": "(2, 2)", 
        "workspace": "256"
      }, 
      "inputs": [[65, 0, 0], [82, 0, 0]]
    }, 
    {
      "op": "null", 
      "name": "vargface_stage_2_unit_1_sep2_data_branch_conv2d_depthwise_bn_gamma", 
      "attrs": {
        "eps": "2e-05", 
        "fix_gamma": "False", 
        "momentum": "0.9", 
        "use_global_stats": "False"
      }, 
      "inputs": []
    }, 
    {
      "op": "null", 
      "name": "vargface_stage_2_unit_1_sep2_data_branch_conv2d_depthwise_bn_beta", 
      "attrs": {
        "eps": "2e-05", 
        "fix_gamma": "False", 
        "momentum": "0.9", 
        "use_global_stats": "False"
      }, 
      "inputs": []
    }, 
    {
      "op": "null", 
      "name": "vargface_stage_2_unit_1_sep2_data_branch_conv2d_depthwise_bn_moving_mean", 
      "attrs": {
        "__init__": "[\"zero\", {}]", 
        "eps": "2e-05", 
        "fix_gamma": "False", 
        "momentum": "0.9", 
        "use_global_stats": "False"
      }, 
      "inputs": []
    }, 
    {
      "op": "null", 
      "name": "vargface_stage_2_unit_1_sep2_data_branch_conv2d_depthwise_bn_moving_var", 
      "attrs": {
        "__init__": "[\"one\", {}]", 
        "eps": "2e-05", 
        "fix_gamma": "False", 
        "momentum": "0.9", 
        "use_global_stats": "False"
      }, 
      "inputs": []
    }, 
    {
      "op": "BatchNorm", 
      "name": "vargface_stage_2_unit_1_sep2_data_branch_conv2d_depthwise_bn", 
      "attrs": {
        "eps": "2e-05", 
        "fix_gamma": "False", 
        "momentum": "0.9", 
        "use_global_stats": "False"
      }, 
      "inputs": [[83, 0, 0], [84, 0, 0], [85, 0, 0], [86, 0, 1], [87, 0, 1]]
    }, 
    {
      "op": "null", 
      "name": "vargface_stage_2_unit_1_sep2_data_branch_conv2d_depthwise_act_gamma", 
      "attrs": {
        "__init__": "[\"Constant\", {\"value\": 0.25}]", 
        "act_type": "prelu"
      }, 
      "inputs": []
    }, 
    {
      "op": "LeakyReLU", 
      "name": "vargface_stage_2_unit_1_sep2_data_branch_conv2d_depthwise_act", 
      "attrs": {"act_type": "prelu"}, 
      "inputs": [[88, 0, 0], [89, 0, 0]]
    }, 
    {
      "op": "null", 
      "name": "vargface_stage_2_unit_1_sep2_data_branch_conv2d_pointwise_weight", 
      "attrs": {
        "kernel": "(1, 1)", 
        "no_bias": "True", 
        "num_filter": "80", 
        "num_group": "1", 
        "pad": "(0, 0)", 
        "stride": "(1, 1)", 
        "workspace": "256"
      }, 
      "inputs": []
    }, 
    {
      "op": "Convolution", 
      "name": "vargface_stage_2_unit_1_sep2_data_branch_conv2d_pointwise", 
      "attrs": {
        "kernel": "(1, 1)", 
        "no_bias": "True", 
        "num_filter": "80", 
        "num_group": "1", 
        "pad": "(0, 0)", 
        "stride": "(1, 1)", 
        "workspace": "256"
      }, 
      "inputs": [[90, 0, 0], [91, 0, 0]]
    }, 
    {
      "op": "null", 
      "name": "vargface_stage_2_unit_1_sep2_data_branch_conv2d_pointwise_bn_gamma", 
      "attrs": {
        "eps": "2e-05", 
        "fix_gamma": "False", 
        "momentum": "0.9", 
        "use_global_stats": "False"
      }, 
      "inputs": []
    }, 
    {
      "op": "null", 
      "name": "vargface_stage_2_unit_1_sep2_data_branch_conv2d_pointwise_bn_beta", 
      "attrs": {
        "eps": "2e-05", 
        "fix_gamma": "False", 
        "momentum": "0.9", 
        "use_global_stats": "False"
      }, 
      "inputs": []
    }, 
    {
      "op": "null", 
      "name": "vargface_stage_2_unit_1_sep2_data_branch_conv2d_pointwise_bn_moving_mean", 
      "attrs": {
        "__init__": "[\"zero\", {}]", 
        "eps": "2e-05", 
        "fix_gamma": "False", 
        "momentum": "0.9", 
        "use_global_stats": "False"
      }, 
      "inputs": []
    }, 
    {
      "op": "null", 
      "name": "vargface_stage_2_unit_1_sep2_data_branch_conv2d_pointwise_bn_moving_var", 
      "attrs": {
        "__init__": "[\"one\", {}]", 
        "eps": "2e-05", 
        "fix_gamma": "False", 
        "momentum": "0.9", 
        "use_global_stats": "False"
      }, 
      "inputs": []
    }, 
    {
      "op": "BatchNorm", 
      "name": "vargface_stage_2_unit_1_sep2_data_branch_conv2d_pointwise_bn", 
      "attrs": {
        "eps": "2e-05", 
        "fix_gamma": "False", 
        "momentum": "0.9", 
        "use_global_stats": "False"
      }, 
      "inputs": [[92, 0, 0], [93, 0, 0], [94, 0, 0], [95, 0, 1], [96, 0, 1]]
    }, 
    {
      "op": "elemwise_add", 
      "name": "_plus1", 
      "inputs": [[81, 0, 0], [97, 0, 0]]
    }, 
    {
      "op": "null", 
      "name": "vargface_stage_2_unit_1_sep1_data_act_gamma", 
      "attrs": {
        "__init__": "[\"Constant\", {\"value\": 0.25}]", 
        "act_type": "prelu"
      }, 
      "inputs": []
    }, 
    {
      "op": "LeakyReLU", 
      "name": "vargface_stage_2_unit_1_sep1_data_act", 
      "attrs": {"act_type": "prelu"}, 
      "inputs": [[98, 0, 0], [99, 0, 0]]
    }, 
    {
      "op": "null", 
      "name": "vargface_stage_2_unit_1_sep2_data_conv2d_depthwise_weight", 
      "attrs": {
        "dilate": "(1, 1)", 
        "kernel": "(3, 3)", 
        "no_bias": "True", 
        "num_filter": "160", 
        "num_group": "10", 
        "pad": "(1, 1)", 
        "stride": "(1, 1)", 
        "workspace": "256"
      }, 
      "inputs": []
    }, 
    {
      "op": "Convolution", 
      "name": "vargface_stage_2_unit_1_sep2_data_conv2d_depthwise", 
      "attrs": {
        "dilate": "(1, 1)", 
        "kernel": "(3, 3)", 
        "no_bias": "True", 
        "num_filter": "160", 
        "num_group": "10", 
        "pad": "(1, 1)", 
        "stride": "(1, 1)", 
        "workspace": "256"
      }, 
      "inputs": [[100, 0, 0], [101, 0, 0]]
    }, 
    {
      "op": "null", 
      "name": "vargface_stage_2_unit_1_sep2_data_conv2d_depthwise_bn_gamma", 
      "attrs": {
        "eps": "2e-05", 
        "fix_gamma": "False", 
        "momentum": "0.9", 
        "use_global_stats": "False"
      }, 
      "inputs": []
    }, 
    {
      "op": "null", 
      "name": "vargface_stage_2_unit_1_sep2_data_conv2d_depthwise_bn_beta", 
      "attrs": {
        "eps": "2e-05", 
        "fix_gamma": "False", 
        "momentum": "0.9", 
        "use_global_stats": "False"
      }, 
      "inputs": []
    }, 
    {
      "op": "null", 
      "name": "vargface_stage_2_unit_1_sep2_data_conv2d_depthwise_bn_moving_mean", 
      "attrs": {
        "__init__": "[\"zero\", {}]", 
        "eps": "2e-05", 
        "fix_gamma": "False", 
        "momentum": "0.9", 
        "use_global_stats": "False"
      }, 
      "inputs": []
    }, 
    {
      "op": "null", 
      "name": "vargface_stage_2_unit_1_sep2_data_conv2d_depthwise_bn_moving_var", 
      "attrs": {
        "__init__": "[\"one\", {}]", 
        "eps": "2e-05", 
        "fix_gamma": "False", 
        "momentum": "0.9", 
        "use_global_stats": "False"
      }, 
      "inputs": []
    }, 
    {
      "op": "BatchNorm", 
      "name": "vargface_stage_2_unit_1_sep2_data_conv2d_depthwise_bn", 
      "attrs": {
        "eps": "2e-05", 
        "fix_gamma": "False", 
        "momentum": "0.9", 
        "use_global_stats": "False"
      }, 
      "inputs": [[102, 0, 0], [103, 0, 0], [104, 0, 0], [105, 0, 1], [106, 0, 1]]
    }, 
    {
      "op": "null", 
      "name": "vargface_stage_2_unit_1_sep2_data_conv2d_depthwise_act_gamma", 
      "attrs": {
        "__init__": "[\"Constant\", {\"value\": 0.25}]", 
        "act_type": "prelu"
      }, 
      "inputs": []
    }, 
    {
      "op": "LeakyReLU", 
      "name": "vargface_stage_2_unit_1_sep2_data_conv2d_depthwise_act", 
      "attrs": {"act_type": "prelu"}, 
      "inputs": [[107, 0, 0], [108, 0, 0]]
    }, 
    {
      "op": "null", 
      "name": "vargface_stage_2_unit_1_sep2_data_conv2d_pointwise_weight", 
      "attrs": {
        "kernel": "(1, 1)", 
        "no_bias": "True", 
        "num_filter": "80", 
        "num_group": "1", 
        "pad": "(0, 0)", 
        "stride": "(1, 1)", 
        "workspace": "256"
      }, 
      "inputs": []
    }, 
    {
      "op": "Convolution", 
      "name": "vargface_stage_2_unit_1_sep2_data_conv2d_pointwise", 
      "attrs": {
        "kernel": "(1, 1)", 
        "no_bias": "True", 
        "num_filter": "80", 
        "num_group": "1", 
        "pad": "(0, 0)", 
        "stride": "(1, 1)", 
        "workspace": "256"
      }, 
      "inputs": [[109, 0, 0], [110, 0, 0]]
    }, 
    {
      "op": "null", 
      "name": "vargface_stage_2_unit_1_sep2_data_conv2d_pointwise_bn_gamma", 
      "attrs": {
        "eps": "2e-05", 
        "fix_gamma": "False", 
        "momentum": "0.9", 
        "use_global_stats": "False"
      }, 
      "inputs": []
    }, 
    {
      "op": "null", 
      "name": "vargface_stage_2_unit_1_sep2_data_conv2d_pointwise_bn_beta", 
      "attrs": {
        "eps": "2e-05", 
        "fix_gamma": "False", 
        "momentum": "0.9", 
        "use_global_stats": "False"
      }, 
      "inputs": []
    }, 
    {
      "op": "null", 
      "name": "vargface_stage_2_unit_1_sep2_data_conv2d_pointwise_bn_moving_mean", 
      "attrs": {
        "__init__": "[\"zero\", {}]", 
        "eps": "2e-05", 
        "fix_gamma": "False", 
        "momentum": "0.9", 
        "use_global_stats": "False"
      }, 
      "inputs": []
    }, 
    {
      "op": "null", 
      "name": "vargface_stage_2_unit_1_sep2_data_conv2d_pointwise_bn_moving_var", 
      "attrs": {
        "__init__": "[\"one\", {}]", 
        "eps": "2e-05", 
        "fix_gamma": "False", 
        "momentum": "0.9", 
        "use_global_stats": "False"
      }, 
      "inputs": []
    }, 
    {
      "op": "BatchNorm", 
      "name": "vargface_stage_2_unit_1_sep2_data_conv2d_pointwise_bn", 
      "attrs": {
        "eps": "2e-05", 
        "fix_gamma": "False", 
        "momentum": "0.9", 
        "use_global_stats": "False"
      }, 
      "inputs": [[111, 0, 0], [112, 0, 0], [113, 0, 0], [114, 0, 1], [115, 0, 1]]
    }, 
    {
      "op": "null", 
      "name": "vargface_stage_2_unit_1_shortcut_conv2d_depthwise_weight", 
      "attrs": {
        "dilate": "(1, 1)", 
        "kernel": "(3, 3)", 
        "no_bias": "True", 
        "num_filter": "80", 
        "num_group": "5", 
        "pad": "(1, 1)", 
        "stride": "(2, 2)", 
        "workspace": "256"
      }, 
      "inputs": []
    }, 
    {
      "op": "Convolution", 
      "name": "vargface_stage_2_unit_1_shortcut_conv2d_depthwise", 
      "attrs": {
        "dilate": "(1, 1)", 
        "kernel": "(3, 3)", 
        "no_bias": "True", 
        "num_filter": "80", 
        "num_group": "5", 
        "pad": "(1, 1)", 
        "stride": "(2, 2)", 
        "workspace": "256"
      }, 
      "inputs": [[65, 0, 0], [117, 0, 0]]
    }, 
    {
      "op": "null", 
      "name": "vargface_stage_2_unit_1_shortcut_conv2d_depthwise_bn_gamma", 
      "attrs": {
        "eps": "2e-05", 
        "fix_gamma": "False", 
        "momentum": "0.9", 
        "use_global_stats": "False"
      }, 
      "inputs": []
    }, 
    {
      "op": "null", 
      "name": "vargface_stage_2_unit_1_shortcut_conv2d_depthwise_bn_beta", 
      "attrs": {
        "eps": "2e-05", 
        "fix_gamma": "False", 
        "momentum": "0.9", 
        "use_global_stats": "False"
      }, 
      "inputs": []
    }, 
    {
      "op": "null", 
      "name": "vargface_stage_2_unit_1_shortcut_conv2d_depthwise_bn_moving_mean", 
      "attrs": {
        "__init__": "[\"zero\", {}]", 
        "eps": "2e-05", 
        "fix_gamma": "False", 
        "momentum": "0.9", 
        "use_global_stats": "False"
      }, 
      "inputs": []
    }, 
    {
      "op": "null", 
      "name": "vargface_stage_2_unit_1_shortcut_conv2d_depthwise_bn_moving_var", 
      "attrs": {
        "__init__": "[\"one\", {}]", 
        "eps": "2e-05", 
        "fix_gamma": "False", 
        "momentum": "0.9", 
        "use_global_stats": "False"
      }, 
      "inputs": []
    }, 
    {
      "op": "BatchNorm", 
      "name": "vargface_stage_2_unit_1_shortcut_conv2d_depthwise_bn", 
      "attrs": {
        "eps": "2e-05", 
        "fix_gamma": "False", 
        "momentum": "0.9", 
        "use_global_stats": "False"
      }, 
      "inputs": [[118, 0, 0], [119, 0, 0], [120, 0, 0], [121, 0, 1], [122, 0, 1]]
    }, 
    {
      "op": "null", 
      "name": "vargface_stage_2_unit_1_shortcut_conv2d_depthwise_act_gamma", 
      "attrs": {
        "__init__": "[\"Constant\", {\"value\": 0.25}]", 
        "act_type": "prelu"
      }, 
      "inputs": []
    }, 
    {
      "op": "LeakyReLU", 
      "name": "vargface_stage_2_unit_1_shortcut_conv2d_depthwise_act", 
      "attrs": {"act_type": "prelu"}, 
      "inputs": [[123, 0, 0], [124, 0, 0]]
    }, 
    {
      "op": "null", 
      "name": "vargface_stage_2_unit_1_shortcut_conv2d_pointwise_weight", 
      "attrs": {
        "kernel": "(1, 1)", 
        "no_bias": "True", 
        "num_filter": "80", 
        "num_group": "1", 
        "pad": "(0, 0)", 
        "stride": "(1, 1)", 
        "workspace": "256"
      }, 
      "inputs": []
    }, 
    {
      "op": "Convolution", 
      "name": "vargface_stage_2_unit_1_shortcut_conv2d_pointwise", 
      "attrs": {
        "kernel": "(1, 1)", 
        "no_bias": "True", 
        "num_filter": "80", 
        "num_group": "1", 
        "pad": "(0, 0)", 
        "stride": "(1, 1)", 
        "workspace": "256"
      }, 
      "inputs": [[125, 0, 0], [126, 0, 0]]
    }, 
    {
      "op": "null", 
      "name": "vargface_stage_2_unit_1_shortcut_conv2d_pointwise_bn_gamma", 
      "attrs": {
        "eps": "2e-05", 
        "fix_gamma": "False", 
        "momentum": "0.9", 
        "use_global_stats": "False"
      }, 
      "inputs": []
    }, 
    {
      "op": "null", 
      "name": "vargface_stage_2_unit_1_shortcut_conv2d_pointwise_bn_beta", 
      "attrs": {
        "eps": "2e-05", 
        "fix_gamma": "False", 
        "momentum": "0.9", 
        "use_global_stats": "False"
      }, 
      "inputs": []
    }, 
    {
      "op": "null", 
      "name": "vargface_stage_2_unit_1_shortcut_conv2d_pointwise_bn_moving_mean", 
      "attrs": {
        "__init__": "[\"zero\", {}]", 
        "eps": "2e-05", 
        "fix_gamma": "False", 
        "momentum": "0.9", 
        "use_global_stats": "False"
      }, 
      "inputs": []
    }, 
    {
      "op": "null", 
      "name": "vargface_stage_2_unit_1_shortcut_conv2d_pointwise_bn_moving_var", 
      "attrs": {
        "__init__": "[\"one\", {}]", 
        "eps": "2e-05", 
        "fix_gamma": "False", 
        "momentum": "0.9", 
        "use_global_stats": "False"
      }, 
      "inputs": []
    }, 
    {
      "op": "BatchNorm", 
      "name": "vargface_stage_2_unit_1_shortcut_conv2d_pointwise_bn", 
      "attrs": {
        "eps": "2e-05", 
        "fix_gamma": "False", 
        "momentum": "0.9", 
        "use_global_stats": "False"
      }, 
      "inputs": [[127, 0, 0], [128, 0, 0], [129, 0, 0], [130, 0, 1], [131, 0, 1]]
    }, 
    {
      "op": "elemwise_add", 
      "name": "_plus2", 
      "inputs": [[116, 0, 0], [132, 0, 0]]
    }, 
    {
      "op": "null", 
      "name": "vargface_stage_2_unit_1_out_data_act_gamma", 
      "attrs": {
        "__init__": "[\"Constant\", {\"value\": 0.25}]", 
        "act_type": "prelu"
      }, 
      "inputs": []
    }, 
    {
      "op": "LeakyReLU", 
      "name": "vargface_stage_2_unit_1_out_data_act", 
      "attrs": {"act_type": "prelu"}, 
      "inputs": [[133, 0, 0], [134, 0, 0]]
    }, 
    {
      "op": "null", 
      "name": "vargface_stage_2_unit_2_sep1_data_conv2d_depthwise_weight", 
      "attrs": {
        "dilate": "(1, 1)", 
        "kernel": "(3, 3)", 
        "no_bias": "True", 
        "num_filter": "160", 
        "num_group": "10", 
        "pad": "(1, 1)", 
        "stride": "(1, 1)", 
        "workspace": "256"
      }, 
      "inputs": []
    }, 
    {
      "op": "Convolution", 
      "name": "vargface_stage_2_unit_2_sep1_data_conv2d_depthwise", 
      "attrs": {
        "dilate": "(1, 1)", 
        "kernel": "(3, 3)", 
        "no_bias": "True", 
        "num_filter": "160", 
        "num_group": "10", 
        "pad": "(1, 1)", 
        "stride": "(1, 1)", 
        "workspace": "256"
      }, 
      "inputs": [[135, 0, 0], [136, 0, 0]]
    }, 
    {
      "op": "null", 
      "name": "vargface_stage_2_unit_2_sep1_data_conv2d_depthwise_bn_gamma", 
      "attrs": {
        "eps": "2e-05", 
        "fix_gamma": "False", 
        "momentum": "0.9", 
        "use_global_stats": "False"
      }, 
      "inputs": []
    }, 
    {
      "op": "null", 
      "name": "vargface_stage_2_unit_2_sep1_data_conv2d_depthwise_bn_beta", 
      "attrs": {
        "eps": "2e-05", 
        "fix_gamma": "False", 
        "momentum": "0.9", 
        "use_global_stats": "False"
      }, 
      "inputs": []
    }, 
    {
      "op": "null", 
      "name": "vargface_stage_2_unit_2_sep1_data_conv2d_depthwise_bn_moving_mean", 
      "attrs": {
        "__init__": "[\"zero\", {}]", 
        "eps": "2e-05", 
        "fix_gamma": "False", 
        "momentum": "0.9", 
        "use_global_stats": "False"
      }, 
      "inputs": []
    }, 
    {
      "op": "null", 
      "name": "vargface_stage_2_unit_2_sep1_data_conv2d_depthwise_bn_moving_var", 
      "attrs": {
        "__init__": "[\"one\", {}]", 
        "eps": "2e-05", 
        "fix_gamma": "False", 
        "momentum": "0.9", 
        "use_global_stats": "False"
      }, 
      "inputs": []
    }, 
    {
      "op": "BatchNorm", 
      "name": "vargface_stage_2_unit_2_sep1_data_conv2d_depthwise_bn", 
      "attrs": {
        "eps": "2e-05", 
        "fix_gamma": "False", 
        "momentum": "0.9", 
        "use_global_stats": "False"
      }, 
      "inputs": [[137, 0, 0], [138, 0, 0], [139, 0, 0], [140, 0, 1], [141, 0, 1]]
    }, 
    {
      "op": "null", 
      "name": "vargface_stage_2_unit_2_sep1_data_conv2d_depthwise_act_gamma", 
      "attrs": {
        "__init__": "[\"Constant\", {\"value\": 0.25}]", 
        "act_type": "prelu"
      }, 
      "inputs": []
    }, 
    {
      "op": "LeakyReLU", 
      "name": "vargface_stage_2_unit_2_sep1_data_conv2d_depthwise_act", 
      "attrs": {"act_type": "prelu"}, 
      "inputs": [[142, 0, 0], [143, 0, 0]]
    }, 
    {
      "op": "null", 
      "name": "vargface_stage_2_unit_2_sep1_data_conv2d_pointwise_weight", 
      "attrs": {
        "kernel": "(1, 1)", 
        "no_bias": "True", 
        "num_filter": "80", 
        "num_group": "1", 
        "pad": "(0, 0)", 
        "stride": "(1, 1)", 
        "workspace": "256"
      }, 
      "inputs": []
    }, 
    {
      "op": "Convolution", 
      "name": "vargface_stage_2_unit_2_sep1_data_conv2d_pointwise", 
      "attrs": {
        "kernel": "(1, 1)", 
        "no_bias": "True", 
        "num_filter": "80", 
        "num_group": "1", 
        "pad": "(0, 0)", 
        "stride": "(1, 1)", 
        "workspace": "256"
      }, 
      "inputs": [[144, 0, 0], [145, 0, 0]]
    }, 
    {
      "op": "null", 
      "name": "vargface_stage_2_unit_2_sep1_data_conv2d_pointwise_bn_gamma", 
      "attrs": {
        "eps": "2e-05", 
        "fix_gamma": "False", 
        "momentum": "0.9", 
        "use_global_stats": "False"
      }, 
      "inputs": []
    }, 
    {
      "op": "null", 
      "name": "vargface_stage_2_unit_2_sep1_data_conv2d_pointwise_bn_beta", 
      "attrs": {
        "eps": "2e-05", 
        "fix_gamma": "False", 
        "momentum": "0.9", 
        "use_global_stats": "False"
      }, 
      "inputs": []
    }, 
    {
      "op": "null", 
      "name": "vargface_stage_2_unit_2_sep1_data_conv2d_pointwise_bn_moving_mean", 
      "attrs": {
        "__init__": "[\"zero\", {}]", 
        "eps": "2e-05", 
        "fix_gamma": "False", 
        "momentum": "0.9", 
        "use_global_stats": "False"
      }, 
      "inputs": []
    }, 
    {
      "op": "null", 
      "name": "vargface_stage_2_unit_2_sep1_data_conv2d_pointwise_bn_moving_var", 
      "attrs": {
        "__init__": "[\"one\", {}]", 
        "eps": "2e-05", 
        "fix_gamma": "False", 
        "momentum": "0.9", 
        "use_global_stats": "False"
      }, 
      "inputs": []
    }, 
    {
      "op": "BatchNorm", 
      "name": "vargface_stage_2_unit_2_sep1_data_conv2d_pointwise_bn", 
      "attrs": {
        "eps": "2e-05", 
        "fix_gamma": "False", 
        "momentum": "0.9", 
        "use_global_stats": "False"
      }, 
      "inputs": [[146, 0, 0], [147, 0, 0], [148, 0, 0], [149, 0, 1], [150, 0, 1]]
    }, 
    {
      "op": "null", 
      "name": "vargface_stage_2_unit_2_sep1_data_conv2d_pointwise_act_gamma", 
      "attrs": {
        "__init__": "[\"Constant\", {\"value\": 0.25}]", 
        "act_type": "prelu"
      }, 
      "inputs": []
    }, 
    {
      "op": "LeakyReLU", 
      "name": "vargface_stage_2_unit_2_sep1_data_conv2d_pointwise_act", 
      "attrs": {"act_type": "prelu"}, 
      "inputs": [[151, 0, 0], [152, 0, 0]]
    }, 
    {
      "op": "null", 
      "name": "vargface_stage_2_unit_2_sep2_data_conv2d_depthwise_weight", 
      "attrs": {
        "dilate": "(1, 1)", 
        "kernel": "(3, 3)", 
        "no_bias": "True", 
        "num_filter": "160", 
        "num_group": "10", 
        "pad": "(1, 1)", 
        "stride": "(1, 1)", 
        "workspace": "256"
      }, 
      "inputs": []
    }, 
    {
      "op": "Convolution", 
      "name": "vargface_stage_2_unit_2_sep2_data_conv2d_depthwise", 
      "attrs": {
        "dilate": "(1, 1)", 
        "kernel": "(3, 3)", 
        "no_bias": "True", 
        "num_filter": "160", 
        "num_group": "10", 
        "pad": "(1, 1)", 
        "stride": "(1, 1)", 
        "workspace": "256"
      }, 
      "inputs": [[153, 0, 0], [154, 0, 0]]
    }, 
    {
      "op": "null", 
      "name": "vargface_stage_2_unit_2_sep2_data_conv2d_depthwise_bn_gamma", 
      "attrs": {
        "eps": "2e-05", 
        "fix_gamma": "False", 
        "momentum": "0.9", 
        "use_global_stats": "False"
      }, 
      "inputs": []
    }, 
    {
      "op": "null", 
      "name": "vargface_stage_2_unit_2_sep2_data_conv2d_depthwise_bn_beta", 
      "attrs": {
        "eps": "2e-05", 
        "fix_gamma": "False", 
        "momentum": "0.9", 
        "use_global_stats": "False"
      }, 
      "inputs": []
    }, 
    {
      "op": "null", 
      "name": "vargface_stage_2_unit_2_sep2_data_conv2d_depthwise_bn_moving_mean", 
      "attrs": {
        "__init__": "[\"zero\", {}]", 
        "eps": "2e-05", 
        "fix_gamma": "False", 
        "momentum": "0.9", 
        "use_global_stats": "False"
      }, 
      "inputs": []
    }, 
    {
      "op": "null", 
      "name": "vargface_stage_2_unit_2_sep2_data_conv2d_depthwise_bn_moving_var", 
      "attrs": {
        "__init__": "[\"one\", {}]", 
        "eps": "2e-05", 
        "fix_gamma": "False", 
        "momentum": "0.9", 
        "use_global_stats": "False"
      }, 
      "inputs": []
    }, 
    {
      "op": "BatchNorm", 
      "name": "vargface_stage_2_unit_2_sep2_data_conv2d_depthwise_bn", 
      "attrs": {
        "eps": "2e-05", 
        "fix_gamma": "False", 
        "momentum": "0.9", 
        "use_global_stats": "False"
      }, 
      "inputs": [[155, 0, 0], [156, 0, 0], [157, 0, 0], [158, 0, 1], [159, 0, 1]]
    }, 
    {
      "op": "null", 
      "name": "vargface_stage_2_unit_2_sep2_data_conv2d_depthwise_act_gamma", 
      "attrs": {
        "__init__": "[\"Constant\", {\"value\": 0.25}]", 
        "act_type": "prelu"
      }, 
      "inputs": []
    }, 
    {
      "op": "LeakyReLU", 
      "name": "vargface_stage_2_unit_2_sep2_data_conv2d_depthwise_act", 
      "attrs": {"act_type": "prelu"}, 
      "inputs": [[160, 0, 0], [161, 0, 0]]
    }, 
    {
      "op": "null", 
      "name": "vargface_stage_2_unit_2_sep2_data_conv2d_pointwise_weight", 
      "attrs": {
        "kernel": "(1, 1)", 
        "no_bias": "True", 
        "num_filter": "80", 
        "num_group": "1", 
        "pad": "(0, 0)", 
        "stride": "(1, 1)", 
        "workspace": "256"
      }, 
      "inputs": []
    }, 
    {
      "op": "Convolution", 
      "name": "vargface_stage_2_unit_2_sep2_data_conv2d_pointwise", 
      "attrs": {
        "kernel": "(1, 1)", 
        "no_bias": "True", 
        "num_filter": "80", 
        "num_group": "1", 
        "pad": "(0, 0)", 
        "stride": "(1, 1)", 
        "workspace": "256"
      }, 
      "inputs": [[162, 0, 0], [163, 0, 0]]
    }, 
    {
      "op": "null", 
      "name": "vargface_stage_2_unit_2_sep2_data_conv2d_pointwise_bn_gamma", 
      "attrs": {
        "eps": "2e-05", 
        "fix_gamma": "False", 
        "momentum": "0.9", 
        "use_global_stats": "False"
      }, 
      "inputs": []
    }, 
    {
      "op": "null", 
      "name": "vargface_stage_2_unit_2_sep2_data_conv2d_pointwise_bn_beta", 
      "attrs": {
        "eps": "2e-05", 
        "fix_gamma": "False", 
        "momentum": "0.9", 
        "use_global_stats": "False"
      }, 
      "inputs": []
    }, 
    {
      "op": "null", 
      "name": "vargface_stage_2_unit_2_sep2_data_conv2d_pointwise_bn_moving_mean", 
      "attrs": {
        "__init__": "[\"zero\", {}]", 
        "eps": "2e-05", 
        "fix_gamma": "False", 
        "momentum": "0.9", 
        "use_global_stats": "False"
      }, 
      "inputs": []
    }, 
    {
      "op": "null", 
      "name": "vargface_stage_2_unit_2_sep2_data_conv2d_pointwise_bn_moving_var", 
      "attrs": {
        "__init__": "[\"one\", {}]", 
        "eps": "2e-05", 
        "fix_gamma": "False", 
        "momentum": "0.9", 
        "use_global_stats": "False"
      }, 
      "inputs": []
    }, 
    {
      "op": "BatchNorm", 
      "name": "vargface_stage_2_unit_2_sep2_data_conv2d_pointwise_bn", 
      "attrs": {
        "eps": "2e-05", 
        "fix_gamma": "False", 
        "momentum": "0.9", 
        "use_global_stats": "False"
      }, 
      "inputs": [[164, 0, 0], [165, 0, 0], [166, 0, 0], [167, 0, 1], [168, 0, 1]]
    }, 
    {
      "op": "elemwise_add", 
      "name": "_plus3", 
      "inputs": [[169, 0, 0], [135, 0, 0]]
    }, 
    {
      "op": "null", 
      "name": "vargface_stage_2_unit_2_out_data_act_gamma", 
      "attrs": {
        "__init__": "[\"Constant\", {\"value\": 0.25}]", 
        "act_type": "prelu"
      }, 
      "inputs": []
    }, 
    {
      "op": "LeakyReLU", 
      "name": "vargface_stage_2_unit_2_out_data_act", 
      "attrs": {"act_type": "prelu"}, 
      "inputs": [[170, 0, 0], [171, 0, 0]]
    }, 
    {
      "op": "null", 
      "name": "vargface_stage_2_unit_3_sep1_data_conv2d_depthwise_weight", 
      "attrs": {
        "dilate": "(1, 1)", 
        "kernel": "(3, 3)", 
        "no_bias": "True", 
        "num_filter": "160", 
        "num_group": "10", 
        "pad": "(1, 1)", 
        "stride": "(1, 1)", 
        "workspace": "256"
      }, 
      "inputs": []
    }, 
    {
      "op": "Convolution", 
      "name": "vargface_stage_2_unit_3_sep1_data_conv2d_depthwise", 
      "attrs": {
        "dilate": "(1, 1)", 
        "kernel": "(3, 3)", 
        "no_bias": "True", 
        "num_filter": "160", 
        "num_group": "10", 
        "pad": "(1, 1)", 
        "stride": "(1, 1)", 
        "workspace": "256"
      }, 
      "inputs": [[172, 0, 0], [173, 0, 0]]
    }, 
    {
      "op": "null", 
      "name": "vargface_stage_2_unit_3_sep1_data_conv2d_depthwise_bn_gamma", 
      "attrs": {
        "eps": "2e-05", 
        "fix_gamma": "False", 
        "momentum": "0.9", 
        "use_global_stats": "False"
      }, 
      "inputs": []
    }, 
    {
      "op": "null", 
      "name": "vargface_stage_2_unit_3_sep1_data_conv2d_depthwise_bn_beta", 
      "attrs": {
        "eps": "2e-05", 
        "fix_gamma": "False", 
        "momentum": "0.9", 
        "use_global_stats": "False"
      }, 
      "inputs": []
    }, 
    {
      "op": "null", 
      "name": "vargface_stage_2_unit_3_sep1_data_conv2d_depthwise_bn_moving_mean", 
      "attrs": {
        "__init__": "[\"zero\", {}]", 
        "eps": "2e-05", 
        "fix_gamma": "False", 
        "momentum": "0.9", 
        "use_global_stats": "False"
      }, 
      "inputs": []
    }, 
    {
      "op": "null", 
      "name": "vargface_stage_2_unit_3_sep1_data_conv2d_depthwise_bn_moving_var", 
      "attrs": {
        "__init__": "[\"one\", {}]", 
        "eps": "2e-05", 
        "fix_gamma": "False", 
        "momentum": "0.9", 
        "use_global_stats": "False"
      }, 
      "inputs": []
    }, 
    {
      "op": "BatchNorm", 
      "name": "vargface_stage_2_unit_3_sep1_data_conv2d_depthwise_bn", 
      "attrs": {
        "eps": "2e-05", 
        "fix_gamma": "False", 
        "momentum": "0.9", 
        "use_global_stats": "False"
      }, 
      "inputs": [[174, 0, 0], [175, 0, 0], [176, 0, 0], [177, 0, 1], [178, 0, 1]]
    }, 
    {
      "op": "null", 
      "name": "vargface_stage_2_unit_3_sep1_data_conv2d_depthwise_act_gamma", 
      "attrs": {
        "__init__": "[\"Constant\", {\"value\": 0.25}]", 
        "act_type": "prelu"
      }, 
      "inputs": []
    }, 
    {
      "op": "LeakyReLU", 
      "name": "vargface_stage_2_unit_3_sep1_data_conv2d_depthwise_act", 
      "attrs": {"act_type": "prelu"}, 
      "inputs": [[179, 0, 0], [180, 0, 0]]
    }, 
    {
      "op": "null", 
      "name": "vargface_stage_2_unit_3_sep1_data_conv2d_pointwise_weight", 
      "attrs": {
        "kernel": "(1, 1)", 
        "no_bias": "True", 
        "num_filter": "80", 
        "num_group": "1", 
        "pad": "(0, 0)", 
        "stride": "(1, 1)", 
        "workspace": "256"
      }, 
      "inputs": []
    }, 
    {
      "op": "Convolution", 
      "name": "vargface_stage_2_unit_3_sep1_data_conv2d_pointwise", 
      "attrs": {
        "kernel": "(1, 1)", 
        "no_bias": "True", 
        "num_filter": "80", 
        "num_group": "1", 
        "pad": "(0, 0)", 
        "stride": "(1, 1)", 
        "workspace": "256"
      }, 
      "inputs": [[181, 0, 0], [182, 0, 0]]
    }, 
    {
      "op": "null", 
      "name": "vargface_stage_2_unit_3_sep1_data_conv2d_pointwise_bn_gamma", 
      "attrs": {
        "eps": "2e-05", 
        "fix_gamma": "False", 
        "momentum": "0.9", 
        "use_global_stats": "False"
      }, 
      "inputs": []
    }, 
    {
      "op": "null", 
      "name": "vargface_stage_2_unit_3_sep1_data_conv2d_pointwise_bn_beta", 
      "attrs": {
        "eps": "2e-05", 
        "fix_gamma": "False", 
        "momentum": "0.9", 
        "use_global_stats": "False"
      }, 
      "inputs": []
    }, 
    {
      "op": "null", 
      "name": "vargface_stage_2_unit_3_sep1_data_conv2d_pointwise_bn_moving_mean", 
      "attrs": {
        "__init__": "[\"zero\", {}]", 
        "eps": "2e-05", 
        "fix_gamma": "False", 
        "momentum": "0.9", 
        "use_global_stats": "False"
      }, 
      "inputs": []
    }, 
    {
      "op": "null", 
      "name": "vargface_stage_2_unit_3_sep1_data_conv2d_pointwise_bn_moving_var", 
      "attrs": {
        "__init__": "[\"one\", {}]", 
        "eps": "2e-05", 
        "fix_gamma": "False", 
        "momentum": "0.9", 
        "use_global_stats": "False"
      }, 
      "inputs": []
    }, 
    {
      "op": "BatchNorm", 
      "name": "vargface_stage_2_unit_3_sep1_data_conv2d_pointwise_bn", 
      "attrs": {
        "eps": "2e-05", 
        "fix_gamma": "False", 
        "momentum": "0.9", 
        "use_global_stats": "False"
      }, 
      "inputs": [[183, 0, 0], [184, 0, 0], [185, 0, 0], [186, 0, 1], [187, 0, 1]]
    }, 
    {
      "op": "null", 
      "name": "vargface_stage_2_unit_3_sep1_data_conv2d_pointwise_act_gamma", 
      "attrs": {
        "__init__": "[\"Constant\", {\"value\": 0.25}]", 
        "act_type": "prelu"
      }, 
      "inputs": []
    }, 
    {
      "op": "LeakyReLU", 
      "name": "vargface_stage_2_unit_3_sep1_data_conv2d_pointwise_act", 
      "attrs": {"act_type": "prelu"}, 
      "inputs": [[188, 0, 0], [189, 0, 0]]
    }, 
    {
      "op": "null", 
      "name": "vargface_stage_2_unit_3_sep2_data_conv2d_depthwise_weight", 
      "attrs": {
        "dilate": "(1, 1)", 
        "kernel": "(3, 3)", 
        "no_bias": "True", 
        "num_filter": "160", 
        "num_group": "10", 
        "pad": "(1, 1)", 
        "stride": "(1, 1)", 
        "workspace": "256"
      }, 
      "inputs": []
    }, 
    {
      "op": "Convolution", 
      "name": "vargface_stage_2_unit_3_sep2_data_conv2d_depthwise", 
      "attrs": {
        "dilate": "(1, 1)", 
        "kernel": "(3, 3)", 
        "no_bias": "True", 
        "num_filter": "160", 
        "num_group": "10", 
        "pad": "(1, 1)", 
        "stride": "(1, 1)", 
        "workspace": "256"
      }, 
      "inputs": [[190, 0, 0], [191, 0, 0]]
    }, 
    {
      "op": "null", 
      "name": "vargface_stage_2_unit_3_sep2_data_conv2d_depthwise_bn_gamma", 
      "attrs": {
        "eps": "2e-05", 
        "fix_gamma": "False", 
        "momentum": "0.9", 
        "use_global_stats": "False"
      }, 
      "inputs": []
    }, 
    {
      "op": "null", 
      "name": "vargface_stage_2_unit_3_sep2_data_conv2d_depthwise_bn_beta", 
      "attrs": {
        "eps": "2e-05", 
        "fix_gamma": "False", 
        "momentum": "0.9", 
        "use_global_stats": "False"
      }, 
      "inputs": []
    }, 
    {
      "op": "null", 
      "name": "vargface_stage_2_unit_3_sep2_data_conv2d_depthwise_bn_moving_mean", 
      "attrs": {
        "__init__": "[\"zero\", {}]", 
        "eps": "2e-05", 
        "fix_gamma": "False", 
        "momentum": "0.9", 
        "use_global_stats": "False"
      }, 
      "inputs": []
    }, 
    {
      "op": "null", 
      "name": "vargface_stage_2_unit_3_sep2_data_conv2d_depthwise_bn_moving_var", 
      "attrs": {
        "__init__": "[\"one\", {}]", 
        "eps": "2e-05", 
        "fix_gamma": "False", 
        "momentum": "0.9", 
        "use_global_stats": "False"
      }, 
      "inputs": []
    }, 
    {
      "op": "BatchNorm", 
      "name": "vargface_stage_2_unit_3_sep2_data_conv2d_depthwise_bn", 
      "attrs": {
        "eps": "2e-05", 
        "fix_gamma": "False", 
        "momentum": "0.9", 
        "use_global_stats": "False"
      }, 
      "inputs": [[192, 0, 0], [193, 0, 0], [194, 0, 0], [195, 0, 1], [196, 0, 1]]
    }, 
    {
      "op": "null", 
      "name": "vargface_stage_2_unit_3_sep2_data_conv2d_depthwise_act_gamma", 
      "attrs": {
        "__init__": "[\"Constant\", {\"value\": 0.25}]", 
        "act_type": "prelu"
      }, 
      "inputs": []
    }, 
    {
      "op": "LeakyReLU", 
      "name": "vargface_stage_2_unit_3_sep2_data_conv2d_depthwise_act", 
      "attrs": {"act_type": "prelu"}, 
      "inputs": [[197, 0, 0], [198, 0, 0]]
    }, 
    {
      "op": "null", 
      "name": "vargface_stage_2_unit_3_sep2_data_conv2d_pointwise_weight", 
      "attrs": {
        "kernel": "(1, 1)", 
        "no_bias": "True", 
        "num_filter": "80", 
        "num_group": "1", 
        "pad": "(0, 0)", 
        "stride": "(1, 1)", 
        "workspace": "256"
      }, 
      "inputs": []
    }, 
    {
      "op": "Convolution", 
      "name": "vargface_stage_2_unit_3_sep2_data_conv2d_pointwise", 
      "attrs": {
        "kernel": "(1, 1)", 
        "no_bias": "True", 
        "num_filter": "80", 
        "num_group": "1", 
        "pad": "(0, 0)", 
        "stride": "(1, 1)", 
        "workspace": "256"
      }, 
      "inputs": [[199, 0, 0], [200, 0, 0]]
    }, 
    {
      "op": "null", 
      "name": "vargface_stage_2_unit_3_sep2_data_conv2d_pointwise_bn_gamma", 
      "attrs": {
        "eps": "2e-05", 
        "fix_gamma": "False", 
        "momentum": "0.9", 
        "use_global_stats": "False"
      }, 
      "inputs": []
    }, 
    {
      "op": "null", 
      "name": "vargface_stage_2_unit_3_sep2_data_conv2d_pointwise_bn_beta", 
      "attrs": {
        "eps": "2e-05", 
        "fix_gamma": "False", 
        "momentum": "0.9", 
        "use_global_stats": "False"
      }, 
      "inputs": []
    }, 
    {
      "op": "null", 
      "name": "vargface_stage_2_unit_3_sep2_data_conv2d_pointwise_bn_moving_mean", 
      "attrs": {
        "__init__": "[\"zero\", {}]", 
        "eps": "2e-05", 
        "fix_gamma": "False", 
        "momentum": "0.9", 
        "use_global_stats": "False"
      }, 
      "inputs": []
    }, 
    {
      "op": "null", 
      "name": "vargface_stage_2_unit_3_sep2_data_conv2d_pointwise_bn_moving_var", 
      "attrs": {
        "__init__": "[\"one\", {}]", 
        "eps": "2e-05", 
        "fix_gamma": "False", 
        "momentum": "0.9", 
        "use_global_stats": "False"
      }, 
      "inputs": []
    }, 
    {
      "op": "BatchNorm", 
      "name": "vargface_stage_2_unit_3_sep2_data_conv2d_pointwise_bn", 
      "attrs": {
        "eps": "2e-05", 
        "fix_gamma": "False", 
        "momentum": "0.9", 
        "use_global_stats": "False"
      }, 
      "inputs": [[201, 0, 0], [202, 0, 0], [203, 0, 0], [204, 0, 1], [205, 0, 1]]
    }, 
    {
      "op": "elemwise_add", 
      "name": "_plus4", 
      "inputs": [[206, 0, 0], [172, 0, 0]]
    }, 
    {
      "op": "null", 
      "name": "vargface_stage_2_unit_3_out_data_act_gamma", 
      "attrs": {
        "__init__": "[\"Constant\", {\"value\": 0.25}]", 
        "act_type": "prelu"
      }, 
      "inputs": []
    }, 
    {
      "op": "LeakyReLU", 
      "name": "vargface_stage_2_unit_3_out_data_act", 
      "attrs": {"act_type": "prelu"}, 
      "inputs": [[207, 0, 0], [208, 0, 0]]
    }, 
    {
      "op": "null", 
      "name": "vargface_stage_3_unit_1_sep1_data_branch_conv2d_depthwise_weight", 
      "attrs": {
        "dilate": "(1, 1)", 
        "kernel": "(3, 3)", 
        "no_bias": "True", 
        "num_filter": "160", 
        "num_group": "10", 
        "pad": "(1, 1)", 
        "stride": "(2, 2)", 
        "workspace": "256"
      }, 
      "inputs": []
    }, 
    {
      "op": "Convolution", 
      "name": "vargface_stage_3_unit_1_sep1_data_branch_conv2d_depthwise", 
      "attrs": {
        "dilate": "(1, 1)", 
        "kernel": "(3, 3)", 
        "no_bias": "True", 
        "num_filter": "160", 
        "num_group": "10", 
        "pad": "(1, 1)", 
        "stride": "(2, 2)", 
        "workspace": "256"
      }, 
      "inputs": [[209, 0, 0], [210, 0, 0]]
    }, 
    {
      "op": "null", 
      "name": "vargface_stage_3_unit_1_sep1_data_branch_conv2d_depthwise_bn_gamma", 
      "attrs": {
        "eps": "2e-05", 
        "fix_gamma": "False", 
        "momentum": "0.9", 
        "use_global_stats": "False"
      }, 
      "inputs": []
    }, 
    {
      "op": "null", 
      "name": "vargface_stage_3_unit_1_sep1_data_branch_conv2d_depthwise_bn_beta", 
      "attrs": {
        "eps": "2e-05", 
        "fix_gamma": "False", 
        "momentum": "0.9", 
        "use_global_stats": "False"
      }, 
      "inputs": []
    }, 
    {
      "op": "null", 
      "name": "vargface_stage_3_unit_1_sep1_data_branch_conv2d_depthwise_bn_moving_mean", 
      "attrs": {
        "__init__": "[\"zero\", {}]", 
        "eps": "2e-05", 
        "fix_gamma": "False", 
        "momentum": "0.9", 
        "use_global_stats": "False"
      }, 
      "inputs": []
    }, 
    {
      "op": "null", 
      "name": "vargface_stage_3_unit_1_sep1_data_branch_conv2d_depthwise_bn_moving_var", 
      "attrs": {
        "__init__": "[\"one\", {}]", 
        "eps": "2e-05", 
        "fix_gamma": "False", 
        "momentum": "0.9", 
        "use_global_stats": "False"
      }, 
      "inputs": []
    }, 
    {
      "op": "BatchNorm", 
      "name": "vargface_stage_3_unit_1_sep1_data_branch_conv2d_depthwise_bn", 
      "attrs": {
        "eps": "2e-05", 
        "fix_gamma": "False", 
        "momentum": "0.9", 
        "use_global_stats": "False"
      }, 
      "inputs": [[211, 0, 0], [212, 0, 0], [213, 0, 0], [214, 0, 1], [215, 0, 1]]
    }, 
    {
      "op": "null", 
      "name": "vargface_stage_3_unit_1_sep1_data_branch_conv2d_depthwise_act_gamma", 
      "attrs": {
        "__init__": "[\"Constant\", {\"value\": 0.25}]", 
        "act_type": "prelu"
      }, 
      "inputs": []
    }, 
    {
      "op": "LeakyReLU", 
      "name": "vargface_stage_3_unit_1_sep1_data_branch_conv2d_depthwise_act", 
      "attrs": {"act_type": "prelu"}, 
      "inputs": [[216, 0, 0], [217, 0, 0]]
    }, 
    {
      "op": "null", 
      "name": "vargface_stage_3_unit_1_sep1_data_branch_conv2d_pointwise_weight", 
      "attrs": {
        "kernel": "(1, 1)", 
        "no_bias": "True", 
        "num_filter": "160", 
        "num_group": "1", 
        "pad": "(0, 0)", 
        "stride": "(1, 1)", 
        "workspace": "256"
      }, 
      "inputs": []
    }, 
    {
      "op": "Convolution", 
      "name": "vargface_stage_3_unit_1_sep1_data_branch_conv2d_pointwise", 
      "attrs": {
        "kernel": "(1, 1)", 
        "no_bias": "True", 
        "num_filter": "160", 
        "num_group": "1", 
        "pad": "(0, 0)", 
        "stride": "(1, 1)", 
        "workspace": "256"
      }, 
      "inputs": [[218, 0, 0], [219, 0, 0]]
    }, 
    {
      "op": "null", 
      "name": "vargface_stage_3_unit_1_sep1_data_branch_conv2d_pointwise_bn_gamma", 
      "attrs": {
        "eps": "2e-05", 
        "fix_gamma": "False", 
        "momentum": "0.9", 
        "use_global_stats": "False"
      }, 
      "inputs": []
    }, 
    {
      "op": "null", 
      "name": "vargface_stage_3_unit_1_sep1_data_branch_conv2d_pointwise_bn_beta", 
      "attrs": {
        "eps": "2e-05", 
        "fix_gamma": "False", 
        "momentum": "0.9", 
        "use_global_stats": "False"
      }, 
      "inputs": []
    }, 
    {
      "op": "null", 
      "name": "vargface_stage_3_unit_1_sep1_data_branch_conv2d_pointwise_bn_moving_mean", 
      "attrs": {
        "__init__": "[\"zero\", {}]", 
        "eps": "2e-05", 
        "fix_gamma": "False", 
        "momentum": "0.9", 
        "use_global_stats": "False"
      }, 
      "inputs": []
    }, 
    {
      "op": "null", 
      "name": "vargface_stage_3_unit_1_sep1_data_branch_conv2d_pointwise_bn_moving_var", 
      "attrs": {
        "__init__": "[\"one\", {}]", 
        "eps": "2e-05", 
        "fix_gamma": "False", 
        "momentum": "0.9", 
        "use_global_stats": "False"
      }, 
      "inputs": []
    }, 
    {
      "op": "BatchNorm", 
      "name": "vargface_stage_3_unit_1_sep1_data_branch_conv2d_pointwise_bn", 
      "attrs": {
        "eps": "2e-05", 
        "fix_gamma": "False", 
        "momentum": "0.9", 
        "use_global_stats": "False"
      }, 
      "inputs": [[220, 0, 0], [221, 0, 0], [222, 0, 0], [223, 0, 1], [224, 0, 1]]
    }, 
    {
      "op": "null", 
      "name": "vargface_stage_3_unit_1_sep2_data_branch_conv2d_depthwise_weight", 
      "attrs": {
        "dilate": "(1, 1)", 
        "kernel": "(3, 3)", 
        "no_bias": "True", 
        "num_filter": "160", 
        "num_group": "10", 
        "pad": "(1, 1)", 
        "stride": "(2, 2)", 
        "workspace": "256"
      }, 
      "inputs": []
    }, 
    {
      "op": "Convolution", 
      "name": "vargface_stage_3_unit_1_sep2_data_branch_conv2d_depthwise", 
      "attrs": {
        "dilate": "(1, 1)", 
        "kernel": "(3, 3)", 
        "no_bias": "True", 
        "num_filter": "160", 
        "num_group": "10", 
        "pad": "(1, 1)", 
        "stride": "(2, 2)", 
        "workspace": "256"
      }, 
      "inputs": [[209, 0, 0], [226, 0, 0]]
    }, 
    {
      "op": "null", 
      "name": "vargface_stage_3_unit_1_sep2_data_branch_conv2d_depthwise_bn_gamma", 
      "attrs": {
        "eps": "2e-05", 
        "fix_gamma": "False", 
        "momentum": "0.9", 
        "use_global_stats": "False"
      }, 
      "inputs": []
    }, 
    {
      "op": "null", 
      "name": "vargface_stage_3_unit_1_sep2_data_branch_conv2d_depthwise_bn_beta", 
      "attrs": {
        "eps": "2e-05", 
        "fix_gamma": "False", 
        "momentum": "0.9", 
        "use_global_stats": "False"
      }, 
      "inputs": []
    }, 
    {
      "op": "null", 
      "name": "vargface_stage_3_unit_1_sep2_data_branch_conv2d_depthwise_bn_moving_mean", 
      "attrs": {
        "__init__": "[\"zero\", {}]", 
        "eps": "2e-05", 
        "fix_gamma": "False", 
        "momentum": "0.9", 
        "use_global_stats": "False"
      }, 
      "inputs": []
    }, 
    {
      "op": "null", 
      "name": "vargface_stage_3_unit_1_sep2_data_branch_conv2d_depthwise_bn_moving_var", 
      "attrs": {
        "__init__": "[\"one\", {}]", 
        "eps": "2e-05", 
        "fix_gamma": "False", 
        "momentum": "0.9", 
        "use_global_stats": "False"
      }, 
      "inputs": []
    }, 
    {
      "op": "BatchNorm", 
      "name": "vargface_stage_3_unit_1_sep2_data_branch_conv2d_depthwise_bn", 
      "attrs": {
        "eps": "2e-05", 
        "fix_gamma": "False", 
        "momentum": "0.9", 
        "use_global_stats": "False"
      }, 
      "inputs": [[227, 0, 0], [228, 0, 0], [229, 0, 0], [230, 0, 1], [231, 0, 1]]
    }, 
    {
      "op": "null", 
      "name": "vargface_stage_3_unit_1_sep2_data_branch_conv2d_depthwise_act_gamma", 
      "attrs": {
        "__init__": "[\"Constant\", {\"value\": 0.25}]", 
        "act_type": "prelu"
      }, 
      "inputs": []
    }, 
    {
      "op": "LeakyReLU", 
      "name": "vargface_stage_3_unit_1_sep2_data_branch_conv2d_depthwise_act", 
      "attrs": {"act_type": "prelu"}, 
      "inputs": [[232, 0, 0], [233, 0, 0]]
    }, 
    {
      "op": "null", 
      "name": "vargface_stage_3_unit_1_sep2_data_branch_conv2d_pointwise_weight", 
      "attrs": {
        "kernel": "(1, 1)", 
        "no_bias": "True", 
        "num_filter": "160", 
        "num_group": "1", 
        "pad": "(0, 0)", 
        "stride": "(1, 1)", 
        "workspace": "256"
      }, 
      "inputs": []
    }, 
    {
      "op": "Convolution", 
      "name": "vargface_stage_3_unit_1_sep2_data_branch_conv2d_pointwise", 
      "attrs": {
        "kernel": "(1, 1)", 
        "no_bias": "True", 
        "num_filter": "160", 
        "num_group": "1", 
        "pad": "(0, 0)", 
        "stride": "(1, 1)", 
        "workspace": "256"
      }, 
      "inputs": [[234, 0, 0], [235, 0, 0]]
    }, 
    {
      "op": "null", 
      "name": "vargface_stage_3_unit_1_sep2_data_branch_conv2d_pointwise_bn_gamma", 
      "attrs": {
        "eps": "2e-05", 
        "fix_gamma": "False", 
        "momentum": "0.9", 
        "use_global_stats": "False"
      }, 
      "inputs": []
    }, 
    {
      "op": "null", 
      "name": "vargface_stage_3_unit_1_sep2_data_branch_conv2d_pointwise_bn_beta", 
      "attrs": {
        "eps": "2e-05", 
        "fix_gamma": "False", 
        "momentum": "0.9", 
        "use_global_stats": "False"
      }, 
      "inputs": []
    }, 
    {
      "op": "null", 
      "name": "vargface_stage_3_unit_1_sep2_data_branch_conv2d_pointwise_bn_moving_mean", 
      "attrs": {
        "__init__": "[\"zero\", {}]", 
        "eps": "2e-05", 
        "fix_gamma": "False", 
        "momentum": "0.9", 
        "use_global_stats": "False"
      }, 
      "inputs": []
    }, 
    {
      "op": "null", 
      "name": "vargface_stage_3_unit_1_sep2_data_branch_conv2d_pointwise_bn_moving_var", 
      "attrs": {
        "__init__": "[\"one\", {}]", 
        "eps": "2e-05", 
        "fix_gamma": "False", 
        "momentum": "0.9", 
        "use_global_stats": "False"
      }, 
      "inputs": []
    }, 
    {
      "op": "BatchNorm", 
      "name": "vargface_stage_3_unit_1_sep2_data_branch_conv2d_pointwise_bn", 
      "attrs": {
        "eps": "2e-05", 
        "fix_gamma": "False", 
        "momentum": "0.9", 
        "use_global_stats": "False"
      }, 
      "inputs": [[236, 0, 0], [237, 0, 0], [238, 0, 0], [239, 0, 1], [240, 0, 1]]
    }, 
    {
      "op": "elemwise_add", 
      "name": "_plus5", 
      "inputs": [[225, 0, 0], [241, 0, 0]]
    }, 
    {
      "op": "null", 
      "name": "vargface_stage_3_unit_1_sep1_data_act_gamma", 
      "attrs": {
        "__init__": "[\"Constant\", {\"value\": 0.25}]", 
        "act_type": "prelu"
      }, 
      "inputs": []
    }, 
    {
      "op": "LeakyReLU", 
      "name": "vargface_stage_3_unit_1_sep1_data_act", 
      "attrs": {"act_type": "prelu"}, 
      "inputs": [[242, 0, 0], [243, 0, 0]]
    }, 
    {
      "op": "null", 
      "name": "vargface_stage_3_unit_1_sep2_data_conv2d_depthwise_weight", 
      "attrs": {
        "dilate": "(1, 1)", 
        "kernel": "(3, 3)", 
        "no_bias": "True", 
        "num_filter": "320", 
        "num_group": "20", 
        "pad": "(1, 1)", 
        "stride": "(1, 1)", 
        "workspace": "256"
      }, 
      "inputs": []
    }, 
    {
      "op": "Convolution", 
      "name": "vargface_stage_3_unit_1_sep2_data_conv2d_depthwise", 
      "attrs": {
        "dilate": "(1, 1)", 
        "kernel": "(3, 3)", 
        "no_bias": "True", 
        "num_filter": "320", 
        "num_group": "20", 
        "pad": "(1, 1)", 
        "stride": "(1, 1)", 
        "workspace": "256"
      }, 
      "inputs": [[244, 0, 0], [245, 0, 0]]
    }, 
    {
      "op": "null", 
      "name": "vargface_stage_3_unit_1_sep2_data_conv2d_depthwise_bn_gamma", 
      "attrs": {
        "eps": "2e-05", 
        "fix_gamma": "False", 
        "momentum": "0.9", 
        "use_global_stats": "False"
      }, 
      "inputs": []
    }, 
    {
      "op": "null", 
      "name": "vargface_stage_3_unit_1_sep2_data_conv2d_depthwise_bn_beta", 
      "attrs": {
        "eps": "2e-05", 
        "fix_gamma": "False", 
        "momentum": "0.9", 
        "use_global_stats": "False"
      }, 
      "inputs": []
    }, 
    {
      "op": "null", 
      "name": "vargface_stage_3_unit_1_sep2_data_conv2d_depthwise_bn_moving_mean", 
      "attrs": {
        "__init__": "[\"zero\", {}]", 
        "eps": "2e-05", 
        "fix_gamma": "False", 
        "momentum": "0.9", 
        "use_global_stats": "False"
      }, 
      "inputs": []
    }, 
    {
      "op": "null", 
      "name": "vargface_stage_3_unit_1_sep2_data_conv2d_depthwise_bn_moving_var", 
      "attrs": {
        "__init__": "[\"one\", {}]", 
        "eps": "2e-05", 
        "fix_gamma": "False", 
        "momentum": "0.9", 
        "use_global_stats": "False"
      }, 
      "inputs": []
    }, 
    {
      "op": "BatchNorm", 
      "name": "vargface_stage_3_unit_1_sep2_data_conv2d_depthwise_bn", 
      "attrs": {
        "eps": "2e-05", 
        "fix_gamma": "False", 
        "momentum": "0.9", 
        "use_global_stats": "False"
      }, 
      "inputs": [[246, 0, 0], [247, 0, 0], [248, 0, 0], [249, 0, 1], [250, 0, 1]]
    }, 
    {
      "op": "null", 
      "name": "vargface_stage_3_unit_1_sep2_data_conv2d_depthwise_act_gamma", 
      "attrs": {
        "__init__": "[\"Constant\", {\"value\": 0.25}]", 
        "act_type": "prelu"
      }, 
      "inputs": []
    }, 
    {
      "op": "LeakyReLU", 
      "name": "vargface_stage_3_unit_1_sep2_data_conv2d_depthwise_act", 
      "attrs": {"act_type": "prelu"}, 
      "inputs": [[251, 0, 0], [252, 0, 0]]
    }, 
    {
      "op": "null", 
      "name": "vargface_stage_3_unit_1_sep2_data_conv2d_pointwise_weight", 
      "attrs": {
        "kernel": "(1, 1)", 
        "no_bias": "True", 
        "num_filter": "160", 
        "num_group": "1", 
        "pad": "(0, 0)", 
        "stride": "(1, 1)", 
        "workspace": "256"
      }, 
      "inputs": []
    }, 
    {
      "op": "Convolution", 
      "name": "vargface_stage_3_unit_1_sep2_data_conv2d_pointwise", 
      "attrs": {
        "kernel": "(1, 1)", 
        "no_bias": "True", 
        "num_filter": "160", 
        "num_group": "1", 
        "pad": "(0, 0)", 
        "stride": "(1, 1)", 
        "workspace": "256"
      }, 
      "inputs": [[253, 0, 0], [254, 0, 0]]
    }, 
    {
      "op": "null", 
      "name": "vargface_stage_3_unit_1_sep2_data_conv2d_pointwise_bn_gamma", 
      "attrs": {
        "eps": "2e-05", 
        "fix_gamma": "False", 
        "momentum": "0.9", 
        "use_global_stats": "False"
      }, 
      "inputs": []
    }, 
    {
      "op": "null", 
      "name": "vargface_stage_3_unit_1_sep2_data_conv2d_pointwise_bn_beta", 
      "attrs": {
        "eps": "2e-05", 
        "fix_gamma": "False", 
        "momentum": "0.9", 
        "use_global_stats": "False"
      }, 
      "inputs": []
    }, 
    {
      "op": "null", 
      "name": "vargface_stage_3_unit_1_sep2_data_conv2d_pointwise_bn_moving_mean", 
      "attrs": {
        "__init__": "[\"zero\", {}]", 
        "eps": "2e-05", 
        "fix_gamma": "False", 
        "momentum": "0.9", 
        "use_global_stats": "False"
      }, 
      "inputs": []
    }, 
    {
      "op": "null", 
      "name": "vargface_stage_3_unit_1_sep2_data_conv2d_pointwise_bn_moving_var", 
      "attrs": {
        "__init__": "[\"one\", {}]", 
        "eps": "2e-05", 
        "fix_gamma": "False", 
        "momentum": "0.9", 
        "use_global_stats": "False"
      }, 
      "inputs": []
    }, 
    {
      "op": "BatchNorm", 
      "name": "vargface_stage_3_unit_1_sep2_data_conv2d_pointwise_bn", 
      "attrs": {
        "eps": "2e-05", 
        "fix_gamma": "False", 
        "momentum": "0.9", 
        "use_global_stats": "False"
      }, 
      "inputs": [[255, 0, 0], [256, 0, 0], [257, 0, 0], [258, 0, 1], [259, 0, 1]]
    }, 
    {
      "op": "null", 
      "name": "vargface_stage_3_unit_1_shortcut_conv2d_depthwise_weight", 
      "attrs": {
        "dilate": "(1, 1)", 
        "kernel": "(3, 3)", 
        "no_bias": "True", 
        "num_filter": "160", 
        "num_group": "10", 
        "pad": "(1, 1)", 
        "stride": "(2, 2)", 
        "workspace": "256"
      }, 
      "inputs": []
    }, 
    {
      "op": "Convolution", 
      "name": "vargface_stage_3_unit_1_shortcut_conv2d_depthwise", 
      "attrs": {
        "dilate": "(1, 1)", 
        "kernel": "(3, 3)", 
        "no_bias": "True", 
        "num_filter": "160", 
        "num_group": "10", 
        "pad": "(1, 1)", 
        "stride": "(2, 2)", 
        "workspace": "256"
      }, 
      "inputs": [[209, 0, 0], [261, 0, 0]]
    }, 
    {
      "op": "null", 
      "name": "vargface_stage_3_unit_1_shortcut_conv2d_depthwise_bn_gamma", 
      "attrs": {
        "eps": "2e-05", 
        "fix_gamma": "False", 
        "momentum": "0.9", 
        "use_global_stats": "False"
      }, 
      "inputs": []
    }, 
    {
      "op": "null", 
      "name": "vargface_stage_3_unit_1_shortcut_conv2d_depthwise_bn_beta", 
      "attrs": {
        "eps": "2e-05", 
        "fix_gamma": "False", 
        "momentum": "0.9", 
        "use_global_stats": "False"
      }, 
      "inputs": []
    }, 
    {
      "op": "null", 
      "name": "vargface_stage_3_unit_1_shortcut_conv2d_depthwise_bn_moving_mean", 
      "attrs": {
        "__init__": "[\"zero\", {}]", 
        "eps": "2e-05", 
        "fix_gamma": "False", 
        "momentum": "0.9", 
        "use_global_stats": "False"
      }, 
      "inputs": []
    }, 
    {
      "op": "null", 
      "name": "vargface_stage_3_unit_1_shortcut_conv2d_depthwise_bn_moving_var", 
      "attrs": {
        "__init__": "[\"one\", {}]", 
        "eps": "2e-05", 
        "fix_gamma": "False", 
        "momentum": "0.9", 
        "use_global_stats": "False"
      }, 
      "inputs": []
    }, 
    {
      "op": "BatchNorm", 
      "name": "vargface_stage_3_unit_1_shortcut_conv2d_depthwise_bn", 
      "attrs": {
        "eps": "2e-05", 
        "fix_gamma": "False", 
        "momentum": "0.9", 
        "use_global_stats": "False"
      }, 
      "inputs": [[262, 0, 0], [263, 0, 0], [264, 0, 0], [265, 0, 1], [266, 0, 1]]
    }, 
    {
      "op": "null", 
      "name": "vargface_stage_3_unit_1_shortcut_conv2d_depthwise_act_gamma", 
      "attrs": {
        "__init__": "[\"Constant\", {\"value\": 0.25}]", 
        "act_type": "prelu"
      }, 
      "inputs": []
    }, 
    {
      "op": "LeakyReLU", 
      "name": "vargface_stage_3_unit_1_shortcut_conv2d_depthwise_act", 
      "attrs": {"act_type": "prelu"}, 
      "inputs": [[267, 0, 0], [268, 0, 0]]
    }, 
    {
      "op": "null", 
      "name": "vargface_stage_3_unit_1_shortcut_conv2d_pointwise_weight", 
      "attrs": {
        "kernel": "(1, 1)", 
        "no_bias": "True", 
        "num_filter": "160", 
        "num_group": "1", 
        "pad": "(0, 0)", 
        "stride": "(1, 1)", 
        "workspace": "256"
      }, 
      "inputs": []
    }, 
    {
      "op": "Convolution", 
      "name": "vargface_stage_3_unit_1_shortcut_conv2d_pointwise", 
      "attrs": {
        "kernel": "(1, 1)", 
        "no_bias": "True", 
        "num_filter": "160", 
        "num_group": "1", 
        "pad": "(0, 0)", 
        "stride": "(1, 1)", 
        "workspace": "256"
      }, 
      "inputs": [[269, 0, 0], [270, 0, 0]]
    }, 
    {
      "op": "null", 
      "name": "vargface_stage_3_unit_1_shortcut_conv2d_pointwise_bn_gamma", 
      "attrs": {
        "eps": "2e-05", 
        "fix_gamma": "False", 
        "momentum": "0.9", 
        "use_global_stats": "False"
      }, 
      "inputs": []
    }, 
    {
      "op": "null", 
      "name": "vargface_stage_3_unit_1_shortcut_conv2d_pointwise_bn_beta", 
      "attrs": {
        "eps": "2e-05", 
        "fix_gamma": "False", 
        "momentum": "0.9", 
        "use_global_stats": "False"
      }, 
      "inputs": []
    }, 
    {
      "op": "null", 
      "name": "vargface_stage_3_unit_1_shortcut_conv2d_pointwise_bn_moving_mean", 
      "attrs": {
        "__init__": "[\"zero\", {}]", 
        "eps": "2e-05", 
        "fix_gamma": "False", 
        "momentum": "0.9", 
        "use_global_stats": "False"
      }, 
      "inputs": []
    }, 
    {
      "op": "null", 
      "name": "vargface_stage_3_unit_1_shortcut_conv2d_pointwise_bn_moving_var", 
      "attrs": {
        "__init__": "[\"one\", {}]", 
        "eps": "2e-05", 
        "fix_gamma": "False", 
        "momentum": "0.9", 
        "use_global_stats": "False"
      }, 
      "inputs": []
    }, 
    {
      "op": "BatchNorm", 
      "name": "vargface_stage_3_unit_1_shortcut_conv2d_pointwise_bn", 
      "attrs": {
        "eps": "2e-05", 
        "fix_gamma": "False", 
        "momentum": "0.9", 
        "use_global_stats": "False"
      }, 
      "inputs": [[271, 0, 0], [272, 0, 0], [273, 0, 0], [274, 0, 1], [275, 0, 1]]
    }, 
    {
      "op": "elemwise_add", 
      "name": "_plus6", 
      "inputs": [[260, 0, 0], [276, 0, 0]]
    }, 
    {
      "op": "null", 
      "name": "vargface_stage_3_unit_1_out_data_act_gamma", 
      "attrs": {
        "__init__": "[\"Constant\", {\"value\": 0.25}]", 
        "act_type": "prelu"
      }, 
      "inputs": []
    }, 
    {
      "op": "LeakyReLU", 
      "name": "vargface_stage_3_unit_1_out_data_act", 
      "attrs": {"act_type": "prelu"}, 
      "inputs": [[277, 0, 0], [278, 0, 0]]
    }, 
    {
      "op": "null", 
      "name": "vargface_stage_3_unit_2_sep1_data_conv2d_depthwise_weight", 
      "attrs": {
        "dilate": "(1, 1)", 
        "kernel": "(3, 3)", 
        "no_bias": "True", 
        "num_filter": "320", 
        "num_group": "20", 
        "pad": "(1, 1)", 
        "stride": "(1, 1)", 
        "workspace": "256"
      }, 
      "inputs": []
    }, 
    {
      "op": "Convolution", 
      "name": "vargface_stage_3_unit_2_sep1_data_conv2d_depthwise", 
      "attrs": {
        "dilate": "(1, 1)", 
        "kernel": "(3, 3)", 
        "no_bias": "True", 
        "num_filter": "320", 
        "num_group": "20", 
        "pad": "(1, 1)", 
        "stride": "(1, 1)", 
        "workspace": "256"
      }, 
      "inputs": [[279, 0, 0], [280, 0, 0]]
    }, 
    {
      "op": "null", 
      "name": "vargface_stage_3_unit_2_sep1_data_conv2d_depthwise_bn_gamma", 
      "attrs": {
        "eps": "2e-05", 
        "fix_gamma": "False", 
        "momentum": "0.9", 
        "use_global_stats": "False"
      }, 
      "inputs": []
    }, 
    {
      "op": "null", 
      "name": "vargface_stage_3_unit_2_sep1_data_conv2d_depthwise_bn_beta", 
      "attrs": {
        "eps": "2e-05", 
        "fix_gamma": "False", 
        "momentum": "0.9", 
        "use_global_stats": "False"
      }, 
      "inputs": []
    }, 
    {
      "op": "null", 
      "name": "vargface_stage_3_unit_2_sep1_data_conv2d_depthwise_bn_moving_mean", 
      "attrs": {
        "__init__": "[\"zero\", {}]", 
        "eps": "2e-05", 
        "fix_gamma": "False", 
        "momentum": "0.9", 
        "use_global_stats": "False"
      }, 
      "inputs": []
    }, 
    {
      "op": "null", 
      "name": "vargface_stage_3_unit_2_sep1_data_conv2d_depthwise_bn_moving_var", 
      "attrs": {
        "__init__": "[\"one\", {}]", 
        "eps": "2e-05", 
        "fix_gamma": "False", 
        "momentum": "0.9", 
        "use_global_stats": "False"
      }, 
      "inputs": []
    }, 
    {
      "op": "BatchNorm", 
      "name": "vargface_stage_3_unit_2_sep1_data_conv2d_depthwise_bn", 
      "attrs": {
        "eps": "2e-05", 
        "fix_gamma": "False", 
        "momentum": "0.9", 
        "use_global_stats": "False"
      }, 
      "inputs": [[281, 0, 0], [282, 0, 0], [283, 0, 0], [284, 0, 1], [285, 0, 1]]
    }, 
    {
      "op": "null", 
      "name": "vargface_stage_3_unit_2_sep1_data_conv2d_depthwise_act_gamma", 
      "attrs": {
        "__init__": "[\"Constant\", {\"value\": 0.25}]", 
        "act_type": "prelu"
      }, 
      "inputs": []
    }, 
    {
      "op": "LeakyReLU", 
      "name": "vargface_stage_3_unit_2_sep1_data_conv2d_depthwise_act", 
      "attrs": {"act_type": "prelu"}, 
      "inputs": [[286, 0, 0], [287, 0, 0]]
    }, 
    {
      "op": "null", 
      "name": "vargface_stage_3_unit_2_sep1_data_conv2d_pointwise_weight", 
      "attrs": {
        "kernel": "(1, 1)", 
        "no_bias": "True", 
        "num_filter": "160", 
        "num_group": "1", 
        "pad": "(0, 0)", 
        "stride": "(1, 1)", 
        "workspace": "256"
      }, 
      "inputs": []
    }, 
    {
      "op": "Convolution", 
      "name": "vargface_stage_3_unit_2_sep1_data_conv2d_pointwise", 
      "attrs": {
        "kernel": "(1, 1)", 
        "no_bias": "True", 
        "num_filter": "160", 
        "num_group": "1", 
        "pad": "(0, 0)", 
        "stride": "(1, 1)", 
        "workspace": "256"
      }, 
      "inputs": [[288, 0, 0], [289, 0, 0]]
    }, 
    {
      "op": "null", 
      "name": "vargface_stage_3_unit_2_sep1_data_conv2d_pointwise_bn_gamma", 
      "attrs": {
        "eps": "2e-05", 
        "fix_gamma": "False", 
        "momentum": "0.9", 
        "use_global_stats": "False"
      }, 
      "inputs": []
    }, 
    {
      "op": "null", 
      "name": "vargface_stage_3_unit_2_sep1_data_conv2d_pointwise_bn_beta", 
      "attrs": {
        "eps": "2e-05", 
        "fix_gamma": "False", 
        "momentum": "0.9", 
        "use_global_stats": "False"
      }, 
      "inputs": []
    }, 
    {
      "op": "null", 
      "name": "vargface_stage_3_unit_2_sep1_data_conv2d_pointwise_bn_moving_mean", 
      "attrs": {
        "__init__": "[\"zero\", {}]", 
        "eps": "2e-05", 
        "fix_gamma": "False", 
        "momentum": "0.9", 
        "use_global_stats": "False"
      }, 
      "inputs": []
    }, 
    {
      "op": "null", 
      "name": "vargface_stage_3_unit_2_sep1_data_conv2d_pointwise_bn_moving_var", 
      "attrs": {
        "__init__": "[\"one\", {}]", 
        "eps": "2e-05", 
        "fix_gamma": "False", 
        "momentum": "0.9", 
        "use_global_stats": "False"
      }, 
      "inputs": []
    }, 
    {
      "op": "BatchNorm", 
      "name": "vargface_stage_3_unit_2_sep1_data_conv2d_pointwise_bn", 
      "attrs": {
        "eps": "2e-05", 
        "fix_gamma": "False", 
        "momentum": "0.9", 
        "use_global_stats": "False"
      }, 
      "inputs": [[290, 0, 0], [291, 0, 0], [292, 0, 0], [293, 0, 1], [294, 0, 1]]
    }, 
    {
      "op": "null", 
      "name": "vargface_stage_3_unit_2_sep1_data_conv2d_pointwise_act_gamma", 
      "attrs": {
        "__init__": "[\"Constant\", {\"value\": 0.25}]", 
        "act_type": "prelu"
      }, 
      "inputs": []
    }, 
    {
      "op": "LeakyReLU", 
      "name": "vargface_stage_3_unit_2_sep1_data_conv2d_pointwise_act", 
      "attrs": {"act_type": "prelu"}, 
      "inputs": [[295, 0, 0], [296, 0, 0]]
    }, 
    {
      "op": "null", 
      "name": "vargface_stage_3_unit_2_sep2_data_conv2d_depthwise_weight", 
      "attrs": {
        "dilate": "(1, 1)", 
        "kernel": "(3, 3)", 
        "no_bias": "True", 
        "num_filter": "320", 
        "num_group": "20", 
        "pad": "(1, 1)", 
        "stride": "(1, 1)", 
        "workspace": "256"
      }, 
      "inputs": []
    }, 
    {
      "op": "Convolution", 
      "name": "vargface_stage_3_unit_2_sep2_data_conv2d_depthwise", 
      "attrs": {
        "dilate": "(1, 1)", 
        "kernel": "(3, 3)", 
        "no_bias": "True", 
        "num_filter": "320", 
        "num_group": "20", 
        "pad": "(1, 1)", 
        "stride": "(1, 1)", 
        "workspace": "256"
      }, 
      "inputs": [[297, 0, 0], [298, 0, 0]]
    }, 
    {
      "op": "null", 
      "name": "vargface_stage_3_unit_2_sep2_data_conv2d_depthwise_bn_gamma", 
      "attrs": {
        "eps": "2e-05", 
        "fix_gamma": "False", 
        "momentum": "0.9", 
        "use_global_stats": "False"
      }, 
      "inputs": []
    }, 
    {
      "op": "null", 
      "name": "vargface_stage_3_unit_2_sep2_data_conv2d_depthwise_bn_beta", 
      "attrs": {
        "eps": "2e-05", 
        "fix_gamma": "False", 
        "momentum": "0.9", 
        "use_global_stats": "False"
      }, 
      "inputs": []
    }, 
    {
      "op": "null", 
      "name": "vargface_stage_3_unit_2_sep2_data_conv2d_depthwise_bn_moving_mean", 
      "attrs": {
        "__init__": "[\"zero\", {}]", 
        "eps": "2e-05", 
        "fix_gamma": "False", 
        "momentum": "0.9", 
        "use_global_stats": "False"
      }, 
      "inputs": []
    }, 
    {
      "op": "null", 
      "name": "vargface_stage_3_unit_2_sep2_data_conv2d_depthwise_bn_moving_var", 
      "attrs": {
        "__init__": "[\"one\", {}]", 
        "eps": "2e-05", 
        "fix_gamma": "False", 
        "momentum": "0.9", 
        "use_global_stats": "False"
      }, 
      "inputs": []
    }, 
    {
      "op": "BatchNorm", 
      "name": "vargface_stage_3_unit_2_sep2_data_conv2d_depthwise_bn", 
      "attrs": {
        "eps": "2e-05", 
        "fix_gamma": "False", 
        "momentum": "0.9", 
        "use_global_stats": "False"
      }, 
      "inputs": [[299, 0, 0], [300, 0, 0], [301, 0, 0], [302, 0, 1], [303, 0, 1]]
    }, 
    {
      "op": "null", 
      "name": "vargface_stage_3_unit_2_sep2_data_conv2d_depthwise_act_gamma", 
      "attrs": {
        "__init__": "[\"Constant\", {\"value\": 0.25}]", 
        "act_type": "prelu"
      }, 
      "inputs": []
    }, 
    {
      "op": "LeakyReLU", 
      "name": "vargface_stage_3_unit_2_sep2_data_conv2d_depthwise_act", 
      "attrs": {"act_type": "prelu"}, 
      "inputs": [[304, 0, 0], [305, 0, 0]]
    }, 
    {
      "op": "null", 
      "name": "vargface_stage_3_unit_2_sep2_data_conv2d_pointwise_weight", 
      "attrs": {
        "kernel": "(1, 1)", 
        "no_bias": "True", 
        "num_filter": "160", 
        "num_group": "1", 
        "pad": "(0, 0)", 
        "stride": "(1, 1)", 
        "workspace": "256"
      }, 
      "inputs": []
    }, 
    {
      "op": "Convolution", 
      "name": "vargface_stage_3_unit_2_sep2_data_conv2d_pointwise", 
      "attrs": {
        "kernel": "(1, 1)", 
        "no_bias": "True", 
        "num_filter": "160", 
        "num_group": "1", 
        "pad": "(0, 0)", 
        "stride": "(1, 1)", 
        "workspace": "256"
      }, 
      "inputs": [[306, 0, 0], [307, 0, 0]]
    }, 
    {
      "op": "null", 
      "name": "vargface_stage_3_unit_2_sep2_data_conv2d_pointwise_bn_gamma", 
      "attrs": {
        "eps": "2e-05", 
        "fix_gamma": "False", 
        "momentum": "0.9", 
        "use_global_stats": "False"
      }, 
      "inputs": []
    }, 
    {
      "op": "null", 
      "name": "vargface_stage_3_unit_2_sep2_data_conv2d_pointwise_bn_beta", 
      "attrs": {
        "eps": "2e-05", 
        "fix_gamma": "False", 
        "momentum": "0.9", 
        "use_global_stats": "False"
      }, 
      "inputs": []
    }, 
    {
      "op": "null", 
      "name": "vargface_stage_3_unit_2_sep2_data_conv2d_pointwise_bn_moving_mean", 
      "attrs": {
        "__init__": "[\"zero\", {}]", 
        "eps": "2e-05", 
        "fix_gamma": "False", 
        "momentum": "0.9", 
        "use_global_stats": "False"
      }, 
      "inputs": []
    }, 
    {
      "op": "null", 
      "name": "vargface_stage_3_unit_2_sep2_data_conv2d_pointwise_bn_moving_var", 
      "attrs": {
        "__init__": "[\"one\", {}]", 
        "eps": "2e-05", 
        "fix_gamma": "False", 
        "momentum": "0.9", 
        "use_global_stats": "False"
      }, 
      "inputs": []
    }, 
    {
      "op": "BatchNorm", 
      "name": "vargface_stage_3_unit_2_sep2_data_conv2d_pointwise_bn", 
      "attrs": {
        "eps": "2e-05", 
        "fix_gamma": "False", 
        "momentum": "0.9", 
        "use_global_stats": "False"
      }, 
      "inputs": [[308, 0, 0], [309, 0, 0], [310, 0, 0], [311, 0, 1], [312, 0, 1]]
    }, 
    {
      "op": "elemwise_add", 
      "name": "_plus7", 
      "inputs": [[313, 0, 0], [279, 0, 0]]
    }, 
    {
      "op": "null", 
      "name": "vargface_stage_3_unit_2_out_data_act_gamma", 
      "attrs": {
        "__init__": "[\"Constant\", {\"value\": 0.25}]", 
        "act_type": "prelu"
      }, 
      "inputs": []
    }, 
    {
      "op": "LeakyReLU", 
      "name": "vargface_stage_3_unit_2_out_data_act", 
      "attrs": {"act_type": "prelu"}, 
      "inputs": [[314, 0, 0], [315, 0, 0]]
    }, 
    {
      "op": "null", 
      "name": "vargface_stage_3_unit_3_sep1_data_conv2d_depthwise_weight", 
      "attrs": {
        "dilate": "(1, 1)", 
        "kernel": "(3, 3)", 
        "no_bias": "True", 
        "num_filter": "320", 
        "num_group": "20", 
        "pad": "(1, 1)", 
        "stride": "(1, 1)", 
        "workspace": "256"
      }, 
      "inputs": []
    }, 
    {
      "op": "Convolution", 
      "name": "vargface_stage_3_unit_3_sep1_data_conv2d_depthwise", 
      "attrs": {
        "dilate": "(1, 1)", 
        "kernel": "(3, 3)", 
        "no_bias": "True", 
        "num_filter": "320", 
        "num_group": "20", 
        "pad": "(1, 1)", 
        "stride": "(1, 1)", 
        "workspace": "256"
      }, 
      "inputs": [[316, 0, 0], [317, 0, 0]]
    }, 
    {
      "op": "null", 
      "name": "vargface_stage_3_unit_3_sep1_data_conv2d_depthwise_bn_gamma", 
      "attrs": {
        "eps": "2e-05", 
        "fix_gamma": "False", 
        "momentum": "0.9", 
        "use_global_stats": "False"
      }, 
      "inputs": []
    }, 
    {
      "op": "null", 
      "name": "vargface_stage_3_unit_3_sep1_data_conv2d_depthwise_bn_beta", 
      "attrs": {
        "eps": "2e-05", 
        "fix_gamma": "False", 
        "momentum": "0.9", 
        "use_global_stats": "False"
      }, 
      "inputs": []
    }, 
    {
      "op": "null", 
      "name": "vargface_stage_3_unit_3_sep1_data_conv2d_depthwise_bn_moving_mean", 
      "attrs": {
        "__init__": "[\"zero\", {}]", 
        "eps": "2e-05", 
        "fix_gamma": "False", 
        "momentum": "0.9", 
        "use_global_stats": "False"
      }, 
      "inputs": []
    }, 
    {
      "op": "null", 
      "name": "vargface_stage_3_unit_3_sep1_data_conv2d_depthwise_bn_moving_var", 
      "attrs": {
        "__init__": "[\"one\", {}]", 
        "eps": "2e-05", 
        "fix_gamma": "False", 
        "momentum": "0.9", 
        "use_global_stats": "False"
      }, 
      "inputs": []
    }, 
    {
      "op": "BatchNorm", 
      "name": "vargface_stage_3_unit_3_sep1_data_conv2d_depthwise_bn", 
      "attrs": {
        "eps": "2e-05", 
        "fix_gamma": "False", 
        "momentum": "0.9", 
        "use_global_stats": "False"
      }, 
      "inputs": [[318, 0, 0], [319, 0, 0], [320, 0, 0], [321, 0, 1], [322, 0, 1]]
    }, 
    {
      "op": "null", 
      "name": "vargface_stage_3_unit_3_sep1_data_conv2d_depthwise_act_gamma", 
      "attrs": {
        "__init__": "[\"Constant\", {\"value\": 0.25}]", 
        "act_type": "prelu"
      }, 
      "inputs": []
    }, 
    {
      "op": "LeakyReLU", 
      "name": "vargface_stage_3_unit_3_sep1_data_conv2d_depthwise_act", 
      "attrs": {"act_type": "prelu"}, 
      "inputs": [[323, 0, 0], [324, 0, 0]]
    }, 
    {
      "op": "null", 
      "name": "vargface_stage_3_unit_3_sep1_data_conv2d_pointwise_weight", 
      "attrs": {
        "kernel": "(1, 1)", 
        "no_bias": "True", 
        "num_filter": "160", 
        "num_group": "1", 
        "pad": "(0, 0)", 
        "stride": "(1, 1)", 
        "workspace": "256"
      }, 
      "inputs": []
    }, 
    {
      "op": "Convolution", 
      "name": "vargface_stage_3_unit_3_sep1_data_conv2d_pointwise", 
      "attrs": {
        "kernel": "(1, 1)", 
        "no_bias": "True", 
        "num_filter": "160", 
        "num_group": "1", 
        "pad": "(0, 0)", 
        "stride": "(1, 1)", 
        "workspace": "256"
      }, 
      "inputs": [[325, 0, 0], [326, 0, 0]]
    }, 
    {
      "op": "null", 
      "name": "vargface_stage_3_unit_3_sep1_data_conv2d_pointwise_bn_gamma", 
      "attrs": {
        "eps": "2e-05", 
        "fix_gamma": "False", 
        "momentum": "0.9", 
        "use_global_stats": "False"
      }, 
      "inputs": []
    }, 
    {
      "op": "null", 
      "name": "vargface_stage_3_unit_3_sep1_data_conv2d_pointwise_bn_beta", 
      "attrs": {
        "eps": "2e-05", 
        "fix_gamma": "False", 
        "momentum": "0.9", 
        "use_global_stats": "False"
      }, 
      "inputs": []
    }, 
    {
      "op": "null", 
      "name": "vargface_stage_3_unit_3_sep1_data_conv2d_pointwise_bn_moving_mean", 
      "attrs": {
        "__init__": "[\"zero\", {}]", 
        "eps": "2e-05", 
        "fix_gamma": "False", 
        "momentum": "0.9", 
        "use_global_stats": "False"
      }, 
      "inputs": []
    }, 
    {
      "op": "null", 
      "name": "vargface_stage_3_unit_3_sep1_data_conv2d_pointwise_bn_moving_var", 
      "attrs": {
        "__init__": "[\"one\", {}]", 
        "eps": "2e-05", 
        "fix_gamma": "False", 
        "momentum": "0.9", 
        "use_global_stats": "False"
      }, 
      "inputs": []
    }, 
    {
      "op": "BatchNorm", 
      "name": "vargface_stage_3_unit_3_sep1_data_conv2d_pointwise_bn", 
      "attrs": {
        "eps": "2e-05", 
        "fix_gamma": "False", 
        "momentum": "0.9", 
        "use_global_stats": "False"
      }, 
      "inputs": [[327, 0, 0], [328, 0, 0], [329, 0, 0], [330, 0, 1], [331, 0, 1]]
    }, 
    {
      "op": "null", 
      "name": "vargface_stage_3_unit_3_sep1_data_conv2d_pointwise_act_gamma", 
      "attrs": {
        "__init__": "[\"Constant\", {\"value\": 0.25}]", 
        "act_type": "prelu"
      }, 
      "inputs": []
    }, 
    {
      "op": "LeakyReLU", 
      "name": "vargface_stage_3_unit_3_sep1_data_conv2d_pointwise_act", 
      "attrs": {"act_type": "prelu"}, 
      "inputs": [[332, 0, 0], [333, 0, 0]]
    }, 
    {
      "op": "null", 
      "name": "vargface_stage_3_unit_3_sep2_data_conv2d_depthwise_weight", 
      "attrs": {
        "dilate": "(1, 1)", 
        "kernel": "(3, 3)", 
        "no_bias": "True", 
        "num_filter": "320", 
        "num_group": "20", 
        "pad": "(1, 1)", 
        "stride": "(1, 1)", 
        "workspace": "256"
      }, 
      "inputs": []
    }, 
    {
      "op": "Convolution", 
      "name": "vargface_stage_3_unit_3_sep2_data_conv2d_depthwise", 
      "attrs": {
        "dilate": "(1, 1)", 
        "kernel": "(3, 3)", 
        "no_bias": "True", 
        "num_filter": "320", 
        "num_group": "20", 
        "pad": "(1, 1)", 
        "stride": "(1, 1)", 
        "workspace": "256"
      }, 
      "inputs": [[334, 0, 0], [335, 0, 0]]
    }, 
    {
      "op": "null", 
      "name": "vargface_stage_3_unit_3_sep2_data_conv2d_depthwise_bn_gamma", 
      "attrs": {
        "eps": "2e-05", 
        "fix_gamma": "False", 
        "momentum": "0.9", 
        "use_global_stats": "False"
      }, 
      "inputs": []
    }, 
    {
      "op": "null", 
      "name": "vargface_stage_3_unit_3_sep2_data_conv2d_depthwise_bn_beta", 
      "attrs": {
        "eps": "2e-05", 
        "fix_gamma": "False", 
        "momentum": "0.9", 
        "use_global_stats": "False"
      }, 
      "inputs": []
    }, 
    {
      "op": "null", 
      "name": "vargface_stage_3_unit_3_sep2_data_conv2d_depthwise_bn_moving_mean", 
      "attrs": {
        "__init__": "[\"zero\", {}]", 
        "eps": "2e-05", 
        "fix_gamma": "False", 
        "momentum": "0.9", 
        "use_global_stats": "False"
      }, 
      "inputs": []
    }, 
    {
      "op": "null", 
      "name": "vargface_stage_3_unit_3_sep2_data_conv2d_depthwise_bn_moving_var", 
      "attrs": {
        "__init__": "[\"one\", {}]", 
        "eps": "2e-05", 
        "fix_gamma": "False", 
        "momentum": "0.9", 
        "use_global_stats": "False"
      }, 
      "inputs": []
    }, 
    {
      "op": "BatchNorm", 
      "name": "vargface_stage_3_unit_3_sep2_data_conv2d_depthwise_bn", 
      "attrs": {
        "eps": "2e-05", 
        "fix_gamma": "False", 
        "momentum": "0.9", 
        "use_global_stats": "False"
      }, 
      "inputs": [[336, 0, 0], [337, 0, 0], [338, 0, 0], [339, 0, 1], [340, 0, 1]]
    }, 
    {
      "op": "null", 
      "name": "vargface_stage_3_unit_3_sep2_data_conv2d_depthwise_act_gamma", 
      "attrs": {
        "__init__": "[\"Constant\", {\"value\": 0.25}]", 
        "act_type": "prelu"
      }, 
      "inputs": []
    }, 
    {
      "op": "LeakyReLU", 
      "name": "vargface_stage_3_unit_3_sep2_data_conv2d_depthwise_act", 
      "attrs": {"act_type": "prelu"}, 
      "inputs": [[341, 0, 0], [342, 0, 0]]
    }, 
    {
      "op": "null", 
      "name": "vargface_stage_3_unit_3_sep2_data_conv2d_pointwise_weight", 
      "attrs": {
        "kernel": "(1, 1)", 
        "no_bias": "True", 
        "num_filter": "160", 
        "num_group": "1", 
        "pad": "(0, 0)", 
        "stride": "(1, 1)", 
        "workspace": "256"
      }, 
      "inputs": []
    }, 
    {
      "op": "Convolution", 
      "name": "vargface_stage_3_unit_3_sep2_data_conv2d_pointwise", 
      "attrs": {
        "kernel": "(1, 1)", 
        "no_bias": "True", 
        "num_filter": "160", 
        "num_group": "1", 
        "pad": "(0, 0)", 
        "stride": "(1, 1)", 
        "workspace": "256"
      }, 
      "inputs": [[343, 0, 0], [344, 0, 0]]
    }, 
    {
      "op": "null", 
      "name": "vargface_stage_3_unit_3_sep2_data_conv2d_pointwise_bn_gamma", 
      "attrs": {
        "eps": "2e-05", 
        "fix_gamma": "False", 
        "momentum": "0.9", 
        "use_global_stats": "False"
      }, 
      "inputs": []
    }, 
    {
      "op": "null", 
      "name": "vargface_stage_3_unit_3_sep2_data_conv2d_pointwise_bn_beta", 
      "attrs": {
        "eps": "2e-05", 
        "fix_gamma": "False", 
        "momentum": "0.9", 
        "use_global_stats": "False"
      }, 
      "inputs": []
    }, 
    {
      "op": "null", 
      "name": "vargface_stage_3_unit_3_sep2_data_conv2d_pointwise_bn_moving_mean", 
      "attrs": {
        "__init__": "[\"zero\", {}]", 
        "eps": "2e-05", 
        "fix_gamma": "False", 
        "momentum": "0.9", 
        "use_global_stats": "False"
      }, 
      "inputs": []
    }, 
    {
      "op": "null", 
      "name": "vargface_stage_3_unit_3_sep2_data_conv2d_pointwise_bn_moving_var", 
      "attrs": {
        "__init__": "[\"one\", {}]", 
        "eps": "2e-05", 
        "fix_gamma": "False", 
        "momentum": "0.9", 
        "use_global_stats": "False"
      }, 
      "inputs": []
    }, 
    {
      "op": "BatchNorm", 
      "name": "vargface_stage_3_unit_3_sep2_data_conv2d_pointwise_bn", 
      "attrs": {
        "eps": "2e-05", 
        "fix_gamma": "False", 
        "momentum": "0.9", 
        "use_global_stats": "False"
      }, 
      "inputs": [[345, 0, 0], [346, 0, 0], [347, 0, 0], [348, 0, 1], [349, 0, 1]]
    }, 
    {
      "op": "elemwise_add", 
      "name": "_plus8", 
      "inputs": [[350, 0, 0], [316, 0, 0]]
    }, 
    {
      "op": "null", 
      "name": "vargface_stage_3_unit_3_out_data_act_gamma", 
      "attrs": {
        "__init__": "[\"Constant\", {\"value\": 0.25}]", 
        "act_type": "prelu"
      }, 
      "inputs": []
    }, 
    {
      "op": "LeakyReLU", 
      "name": "vargface_stage_3_unit_3_out_data_act", 
      "attrs": {"act_type": "prelu"}, 
      "inputs": [[351, 0, 0], [352, 0, 0]]
    }, 
    {
      "op": "null", 
      "name": "vargface_stage_3_unit_4_sep1_data_conv2d_depthwise_weight", 
      "attrs": {
        "dilate": "(1, 1)", 
        "kernel": "(3, 3)", 
        "no_bias": "True", 
        "num_filter": "320", 
        "num_group": "20", 
        "pad": "(1, 1)", 
        "stride": "(1, 1)", 
        "workspace": "256"
      }, 
      "inputs": []
    }, 
    {
      "op": "Convolution", 
      "name": "vargface_stage_3_unit_4_sep1_data_conv2d_depthwise", 
      "attrs": {
        "dilate": "(1, 1)", 
        "kernel": "(3, 3)", 
        "no_bias": "True", 
        "num_filter": "320", 
        "num_group": "20", 
        "pad": "(1, 1)", 
        "stride": "(1, 1)", 
        "workspace": "256"
      }, 
      "inputs": [[353, 0, 0], [354, 0, 0]]
    }, 
    {
      "op": "null", 
      "name": "vargface_stage_3_unit_4_sep1_data_conv2d_depthwise_bn_gamma", 
      "attrs": {
        "eps": "2e-05", 
        "fix_gamma": "False", 
        "momentum": "0.9", 
        "use_global_stats": "False"
      }, 
      "inputs": []
    }, 
    {
      "op": "null", 
      "name": "vargface_stage_3_unit_4_sep1_data_conv2d_depthwise_bn_beta", 
      "attrs": {
        "eps": "2e-05", 
        "fix_gamma": "False", 
        "momentum": "0.9", 
        "use_global_stats": "False"
      }, 
      "inputs": []
    }, 
    {
      "op": "null", 
      "name": "vargface_stage_3_unit_4_sep1_data_conv2d_depthwise_bn_moving_mean", 
      "attrs": {
        "__init__": "[\"zero\", {}]", 
        "eps": "2e-05", 
        "fix_gamma": "False", 
        "momentum": "0.9", 
        "use_global_stats": "False"
      }, 
      "inputs": []
    }, 
    {
      "op": "null", 
      "name": "vargface_stage_3_unit_4_sep1_data_conv2d_depthwise_bn_moving_var", 
      "attrs": {
        "__init__": "[\"one\", {}]", 
        "eps": "2e-05", 
        "fix_gamma": "False", 
        "momentum": "0.9", 
        "use_global_stats": "False"
      }, 
      "inputs": []
    }, 
    {
      "op": "BatchNorm", 
      "name": "vargface_stage_3_unit_4_sep1_data_conv2d_depthwise_bn", 
      "attrs": {
        "eps": "2e-05", 
        "fix_gamma": "False", 
        "momentum": "0.9", 
        "use_global_stats": "False"
      }, 
      "inputs": [[355, 0, 0], [356, 0, 0], [357, 0, 0], [358, 0, 1], [359, 0, 1]]
    }, 
    {
      "op": "null", 
      "name": "vargface_stage_3_unit_4_sep1_data_conv2d_depthwise_act_gamma", 
      "attrs": {
        "__init__": "[\"Constant\", {\"value\": 0.25}]", 
        "act_type": "prelu"
      }, 
      "inputs": []
    }, 
    {
      "op": "LeakyReLU", 
      "name": "vargface_stage_3_unit_4_sep1_data_conv2d_depthwise_act", 
      "attrs": {"act_type": "prelu"}, 
      "inputs": [[360, 0, 0], [361, 0, 0]]
    }, 
    {
      "op": "null", 
      "name": "vargface_stage_3_unit_4_sep1_data_conv2d_pointwise_weight", 
      "attrs": {
        "kernel": "(1, 1)", 
        "no_bias": "True", 
        "num_filter": "160", 
        "num_group": "1", 
        "pad": "(0, 0)", 
        "stride": "(1, 1)", 
        "workspace": "256"
      }, 
      "inputs": []
    }, 
    {
      "op": "Convolution", 
      "name": "vargface_stage_3_unit_4_sep1_data_conv2d_pointwise", 
      "attrs": {
        "kernel": "(1, 1)", 
        "no_bias": "True", 
        "num_filter": "160", 
        "num_group": "1", 
        "pad": "(0, 0)", 
        "stride": "(1, 1)", 
        "workspace": "256"
      }, 
      "inputs": [[362, 0, 0], [363, 0, 0]]
    }, 
    {
      "op": "null", 
      "name": "vargface_stage_3_unit_4_sep1_data_conv2d_pointwise_bn_gamma", 
      "attrs": {
        "eps": "2e-05", 
        "fix_gamma": "False", 
        "momentum": "0.9", 
        "use_global_stats": "False"
      }, 
      "inputs": []
    }, 
    {
      "op": "null", 
      "name": "vargface_stage_3_unit_4_sep1_data_conv2d_pointwise_bn_beta", 
      "attrs": {
        "eps": "2e-05", 
        "fix_gamma": "False", 
        "momentum": "0.9", 
        "use_global_stats": "False"
      }, 
      "inputs": []
    }, 
    {
      "op": "null", 
      "name": "vargface_stage_3_unit_4_sep1_data_conv2d_pointwise_bn_moving_mean", 
      "attrs": {
        "__init__": "[\"zero\", {}]", 
        "eps": "2e-05", 
        "fix_gamma": "False", 
        "momentum": "0.9", 
        "use_global_stats": "False"
      }, 
      "inputs": []
    }, 
    {
      "op": "null", 
      "name": "vargface_stage_3_unit_4_sep1_data_conv2d_pointwise_bn_moving_var", 
      "attrs": {
        "__init__": "[\"one\", {}]", 
        "eps": "2e-05", 
        "fix_gamma": "False", 
        "momentum": "0.9", 
        "use_global_stats": "False"
      }, 
      "inputs": []
    }, 
    {
      "op": "BatchNorm", 
      "name": "vargface_stage_3_unit_4_sep1_data_conv2d_pointwise_bn", 
      "attrs": {
        "eps": "2e-05", 
        "fix_gamma": "False", 
        "momentum": "0.9", 
        "use_global_stats": "False"
      }, 
      "inputs": [[364, 0, 0], [365, 0, 0], [366, 0, 0], [367, 0, 1], [368, 0, 1]]
    }, 
    {
      "op": "null", 
      "name": "vargface_stage_3_unit_4_sep1_data_conv2d_pointwise_act_gamma", 
      "attrs": {
        "__init__": "[\"Constant\", {\"value\": 0.25}]", 
        "act_type": "prelu"
      }, 
      "inputs": []
    }, 
    {
      "op": "LeakyReLU", 
      "name": "vargface_stage_3_unit_4_sep1_data_conv2d_pointwise_act", 
      "attrs": {"act_type": "prelu"}, 
      "inputs": [[369, 0, 0], [370, 0, 0]]
    }, 
    {
      "op": "null", 
      "name": "vargface_stage_3_unit_4_sep2_data_conv2d_depthwise_weight", 
      "attrs": {
        "dilate": "(1, 1)", 
        "kernel": "(3, 3)", 
        "no_bias": "True", 
        "num_filter": "320", 
        "num_group": "20", 
        "pad": "(1, 1)", 
        "stride": "(1, 1)", 
        "workspace": "256"
      }, 
      "inputs": []
    }, 
    {
      "op": "Convolution", 
      "name": "vargface_stage_3_unit_4_sep2_data_conv2d_depthwise", 
      "attrs": {
        "dilate": "(1, 1)", 
        "kernel": "(3, 3)", 
        "no_bias": "True", 
        "num_filter": "320", 
        "num_group": "20", 
        "pad": "(1, 1)", 
        "stride": "(1, 1)", 
        "workspace": "256"
      }, 
      "inputs": [[371, 0, 0], [372, 0, 0]]
    }, 
    {
      "op": "null", 
      "name": "vargface_stage_3_unit_4_sep2_data_conv2d_depthwise_bn_gamma", 
      "attrs": {
        "eps": "2e-05", 
        "fix_gamma": "False", 
        "momentum": "0.9", 
        "use_global_stats": "False"
      }, 
      "inputs": []
    }, 
    {
      "op": "null", 
      "name": "vargface_stage_3_unit_4_sep2_data_conv2d_depthwise_bn_beta", 
      "attrs": {
        "eps": "2e-05", 
        "fix_gamma": "False", 
        "momentum": "0.9", 
        "use_global_stats": "False"
      }, 
      "inputs": []
    }, 
    {
      "op": "null", 
      "name": "vargface_stage_3_unit_4_sep2_data_conv2d_depthwise_bn_moving_mean", 
      "attrs": {
        "__init__": "[\"zero\", {}]", 
        "eps": "2e-05", 
        "fix_gamma": "False", 
        "momentum": "0.9", 
        "use_global_stats": "False"
      }, 
      "inputs": []
    }, 
    {
      "op": "null", 
      "name": "vargface_stage_3_unit_4_sep2_data_conv2d_depthwise_bn_moving_var", 
      "attrs": {
        "__init__": "[\"one\", {}]", 
        "eps": "2e-05", 
        "fix_gamma": "False", 
        "momentum": "0.9", 
        "use_global_stats": "False"
      }, 
      "inputs": []
    }, 
    {
      "op": "BatchNorm", 
      "name": "vargface_stage_3_unit_4_sep2_data_conv2d_depthwise_bn", 
      "attrs": {
        "eps": "2e-05", 
        "fix_gamma": "False", 
        "momentum": "0.9", 
        "use_global_stats": "False"
      }, 
      "inputs": [[373, 0, 0], [374, 0, 0], [375, 0, 0], [376, 0, 1], [377, 0, 1]]
    }, 
    {
      "op": "null", 
      "name": "vargface_stage_3_unit_4_sep2_data_conv2d_depthwise_act_gamma", 
      "attrs": {
        "__init__": "[\"Constant\", {\"value\": 0.25}]", 
        "act_type": "prelu"
      }, 
      "inputs": []
    }, 
    {
      "op": "LeakyReLU", 
      "name": "vargface_stage_3_unit_4_sep2_data_conv2d_depthwise_act", 
      "attrs": {"act_type": "prelu"}, 
      "inputs": [[378, 0, 0], [379, 0, 0]]
    }, 
    {
      "op": "null", 
      "name": "vargface_stage_3_unit_4_sep2_data_conv2d_pointwise_weight", 
      "attrs": {
        "kernel": "(1, 1)", 
        "no_bias": "True", 
        "num_filter": "160", 
        "num_group": "1", 
        "pad": "(0, 0)", 
        "stride": "(1, 1)", 
        "workspace": "256"
      }, 
      "inputs": []
    }, 
    {
      "op": "Convolution", 
      "name": "vargface_stage_3_unit_4_sep2_data_conv2d_pointwise", 
      "attrs": {
        "kernel": "(1, 1)", 
        "no_bias": "True", 
        "num_filter": "160", 
        "num_group": "1", 
        "pad": "(0, 0)", 
        "stride": "(1, 1)", 
        "workspace": "256"
      }, 
      "inputs": [[380, 0, 0], [381, 0, 0]]
    }, 
    {
      "op": "null", 
      "name": "vargface_stage_3_unit_4_sep2_data_conv2d_pointwise_bn_gamma", 
      "attrs": {
        "eps": "2e-05", 
        "fix_gamma": "False", 
        "momentum": "0.9", 
        "use_global_stats": "False"
      }, 
      "inputs": []
    }, 
    {
      "op": "null", 
      "name": "vargface_stage_3_unit_4_sep2_data_conv2d_pointwise_bn_beta", 
      "attrs": {
        "eps": "2e-05", 
        "fix_gamma": "False", 
        "momentum": "0.9", 
        "use_global_stats": "False"
      }, 
      "inputs": []
    }, 
    {
      "op": "null", 
      "name": "vargface_stage_3_unit_4_sep2_data_conv2d_pointwise_bn_moving_mean", 
      "attrs": {
        "__init__": "[\"zero\", {}]", 
        "eps": "2e-05", 
        "fix_gamma": "False", 
        "momentum": "0.9", 
        "use_global_stats": "False"
      }, 
      "inputs": []
    }, 
    {
      "op": "null", 
      "name": "vargface_stage_3_unit_4_sep2_data_conv2d_pointwise_bn_moving_var", 
      "attrs": {
        "__init__": "[\"one\", {}]", 
        "eps": "2e-05", 
        "fix_gamma": "False", 
        "momentum": "0.9", 
        "use_global_stats": "False"
      }, 
      "inputs": []
    }, 
    {
      "op": "BatchNorm", 
      "name": "vargface_stage_3_unit_4_sep2_data_conv2d_pointwise_bn", 
      "attrs": {
        "eps": "2e-05", 
        "fix_gamma": "False", 
        "momentum": "0.9", 
        "use_global_stats": "False"
      }, 
      "inputs": [[382, 0, 0], [383, 0, 0], [384, 0, 0], [385, 0, 1], [386, 0, 1]]
    }, 
    {
      "op": "elemwise_add", 
      "name": "_plus9", 
      "inputs": [[387, 0, 0], [353, 0, 0]]
    }, 
    {
      "op": "null", 
      "name": "vargface_stage_3_unit_4_out_data_act_gamma", 
      "attrs": {
        "__init__": "[\"Constant\", {\"value\": 0.25}]", 
        "act_type": "prelu"
      }, 
      "inputs": []
    }, 
    {
      "op": "LeakyReLU", 
      "name": "vargface_stage_3_unit_4_out_data_act", 
      "attrs": {"act_type": "prelu"}, 
      "inputs": [[388, 0, 0], [389, 0, 0]]
    }, 
    {
      "op": "null", 
      "name": "vargface_stage_3_unit_5_sep1_data_conv2d_depthwise_weight", 
      "attrs": {
        "dilate": "(1, 1)", 
        "kernel": "(3, 3)", 
        "no_bias": "True", 
        "num_filter": "320", 
        "num_group": "20", 
        "pad": "(1, 1)", 
        "stride": "(1, 1)", 
        "workspace": "256"
      }, 
      "inputs": []
    }, 
    {
      "op": "Convolution", 
      "name": "vargface_stage_3_unit_5_sep1_data_conv2d_depthwise", 
      "attrs": {
        "dilate": "(1, 1)", 
        "kernel": "(3, 3)", 
        "no_bias": "True", 
        "num_filter": "320", 
        "num_group": "20", 
        "pad": "(1, 1)", 
        "stride": "(1, 1)", 
        "workspace": "256"
      }, 
      "inputs": [[390, 0, 0], [391, 0, 0]]
    }, 
    {
      "op": "null", 
      "name": "vargface_stage_3_unit_5_sep1_data_conv2d_depthwise_bn_gamma", 
      "attrs": {
        "eps": "2e-05", 
        "fix_gamma": "False", 
        "momentum": "0.9", 
        "use_global_stats": "False"
      }, 
      "inputs": []
    }, 
    {
      "op": "null", 
      "name": "vargface_stage_3_unit_5_sep1_data_conv2d_depthwise_bn_beta", 
      "attrs": {
        "eps": "2e-05", 
        "fix_gamma": "False", 
        "momentum": "0.9", 
        "use_global_stats": "False"
      }, 
      "inputs": []
    }, 
    {
      "op": "null", 
      "name": "vargface_stage_3_unit_5_sep1_data_conv2d_depthwise_bn_moving_mean", 
      "attrs": {
        "__init__": "[\"zero\", {}]", 
        "eps": "2e-05", 
        "fix_gamma": "False", 
        "momentum": "0.9", 
        "use_global_stats": "False"
      }, 
      "inputs": []
    }, 
    {
      "op": "null", 
      "name": "vargface_stage_3_unit_5_sep1_data_conv2d_depthwise_bn_moving_var", 
      "attrs": {
        "__init__": "[\"one\", {}]", 
        "eps": "2e-05", 
        "fix_gamma": "False", 
        "momentum": "0.9", 
        "use_global_stats": "False"
      }, 
      "inputs": []
    }, 
    {
      "op": "BatchNorm", 
      "name": "vargface_stage_3_unit_5_sep1_data_conv2d_depthwise_bn", 
      "attrs": {
        "eps": "2e-05", 
        "fix_gamma": "False", 
        "momentum": "0.9", 
        "use_global_stats": "False"
      }, 
      "inputs": [[392, 0, 0], [393, 0, 0], [394, 0, 0], [395, 0, 1], [396, 0, 1]]
    }, 
    {
      "op": "null", 
      "name": "vargface_stage_3_unit_5_sep1_data_conv2d_depthwise_act_gamma", 
      "attrs": {
        "__init__": "[\"Constant\", {\"value\": 0.25}]", 
        "act_type": "prelu"
      }, 
      "inputs": []
    }, 
    {
      "op": "LeakyReLU", 
      "name": "vargface_stage_3_unit_5_sep1_data_conv2d_depthwise_act", 
      "attrs": {"act_type": "prelu"}, 
      "inputs": [[397, 0, 0], [398, 0, 0]]
    }, 
    {
      "op": "null", 
      "name": "vargface_stage_3_unit_5_sep1_data_conv2d_pointwise_weight", 
      "attrs": {
        "kernel": "(1, 1)", 
        "no_bias": "True", 
        "num_filter": "160", 
        "num_group": "1", 
        "pad": "(0, 0)", 
        "stride": "(1, 1)", 
        "workspace": "256"
      }, 
      "inputs": []
    }, 
    {
      "op": "Convolution", 
      "name": "vargface_stage_3_unit_5_sep1_data_conv2d_pointwise", 
      "attrs": {
        "kernel": "(1, 1)", 
        "no_bias": "True", 
        "num_filter": "160", 
        "num_group": "1", 
        "pad": "(0, 0)", 
        "stride": "(1, 1)", 
        "workspace": "256"
      }, 
      "inputs": [[399, 0, 0], [400, 0, 0]]
    }, 
    {
      "op": "null", 
      "name": "vargface_stage_3_unit_5_sep1_data_conv2d_pointwise_bn_gamma", 
      "attrs": {
        "eps": "2e-05", 
        "fix_gamma": "False", 
        "momentum": "0.9", 
        "use_global_stats": "False"
      }, 
      "inputs": []
    }, 
    {
      "op": "null", 
      "name": "vargface_stage_3_unit_5_sep1_data_conv2d_pointwise_bn_beta", 
      "attrs": {
        "eps": "2e-05", 
        "fix_gamma": "False", 
        "momentum": "0.9", 
        "use_global_stats": "False"
      }, 
      "inputs": []
    }, 
    {
      "op": "null", 
      "name": "vargface_stage_3_unit_5_sep1_data_conv2d_pointwise_bn_moving_mean", 
      "attrs": {
        "__init__": "[\"zero\", {}]", 
        "eps": "2e-05", 
        "fix_gamma": "False", 
        "momentum": "0.9", 
        "use_global_stats": "False"
      }, 
      "inputs": []
    }, 
    {
      "op": "null", 
      "name": "vargface_stage_3_unit_5_sep1_data_conv2d_pointwise_bn_moving_var", 
      "attrs": {
        "__init__": "[\"one\", {}]", 
        "eps": "2e-05", 
        "fix_gamma": "False", 
        "momentum": "0.9", 
        "use_global_stats": "False"
      }, 
      "inputs": []
    }, 
    {
      "op": "BatchNorm", 
      "name": "vargface_stage_3_unit_5_sep1_data_conv2d_pointwise_bn", 
      "attrs": {
        "eps": "2e-05", 
        "fix_gamma": "False", 
        "momentum": "0.9", 
        "use_global_stats": "False"
      }, 
      "inputs": [[401, 0, 0], [402, 0, 0], [403, 0, 0], [404, 0, 1], [405, 0, 1]]
    }, 
    {
      "op": "null", 
      "name": "vargface_stage_3_unit_5_sep1_data_conv2d_pointwise_act_gamma", 
      "attrs": {
        "__init__": "[\"Constant\", {\"value\": 0.25}]", 
        "act_type": "prelu"
      }, 
      "inputs": []
    }, 
    {
      "op": "LeakyReLU", 
      "name": "vargface_stage_3_unit_5_sep1_data_conv2d_pointwise_act", 
      "attrs": {"act_type": "prelu"}, 
      "inputs": [[406, 0, 0], [407, 0, 0]]
    }, 
    {
      "op": "null", 
      "name": "vargface_stage_3_unit_5_sep2_data_conv2d_depthwise_weight", 
      "attrs": {
        "dilate": "(1, 1)", 
        "kernel": "(3, 3)", 
        "no_bias": "True", 
        "num_filter": "320", 
        "num_group": "20", 
        "pad": "(1, 1)", 
        "stride": "(1, 1)", 
        "workspace": "256"
      }, 
      "inputs": []
    }, 
    {
      "op": "Convolution", 
      "name": "vargface_stage_3_unit_5_sep2_data_conv2d_depthwise", 
      "attrs": {
        "dilate": "(1, 1)", 
        "kernel": "(3, 3)", 
        "no_bias": "True", 
        "num_filter": "320", 
        "num_group": "20", 
        "pad": "(1, 1)", 
        "stride": "(1, 1)", 
        "workspace": "256"
      }, 
      "inputs": [[408, 0, 0], [409, 0, 0]]
    }, 
    {
      "op": "null", 
      "name": "vargface_stage_3_unit_5_sep2_data_conv2d_depthwise_bn_gamma", 
      "attrs": {
        "eps": "2e-05", 
        "fix_gamma": "False", 
        "momentum": "0.9", 
        "use_global_stats": "False"
      }, 
      "inputs": []
    }, 
    {
      "op": "null", 
      "name": "vargface_stage_3_unit_5_sep2_data_conv2d_depthwise_bn_beta", 
      "attrs": {
        "eps": "2e-05", 
        "fix_gamma": "False", 
        "momentum": "0.9", 
        "use_global_stats": "False"
      }, 
      "inputs": []
    }, 
    {
      "op": "null", 
      "name": "vargface_stage_3_unit_5_sep2_data_conv2d_depthwise_bn_moving_mean", 
      "attrs": {
        "__init__": "[\"zero\", {}]", 
        "eps": "2e-05", 
        "fix_gamma": "False", 
        "momentum": "0.9", 
        "use_global_stats": "False"
      }, 
      "inputs": []
    }, 
    {
      "op": "null", 
      "name": "vargface_stage_3_unit_5_sep2_data_conv2d_depthwise_bn_moving_var", 
      "attrs": {
        "__init__": "[\"one\", {}]", 
        "eps": "2e-05", 
        "fix_gamma": "False", 
        "momentum": "0.9", 
        "use_global_stats": "False"
      }, 
      "inputs": []
    }, 
    {
      "op": "BatchNorm", 
      "name": "vargface_stage_3_unit_5_sep2_data_conv2d_depthwise_bn", 
      "attrs": {
        "eps": "2e-05", 
        "fix_gamma": "False", 
        "momentum": "0.9", 
        "use_global_stats": "False"
      }, 
      "inputs": [[410, 0, 0], [411, 0, 0], [412, 0, 0], [413, 0, 1], [414, 0, 1]]
    }, 
    {
      "op": "null", 
      "name": "vargface_stage_3_unit_5_sep2_data_conv2d_depthwise_act_gamma", 
      "attrs": {
        "__init__": "[\"Constant\", {\"value\": 0.25}]", 
        "act_type": "prelu"
      }, 
      "inputs": []
    }, 
    {
      "op": "LeakyReLU", 
      "name": "vargface_stage_3_unit_5_sep2_data_conv2d_depthwise_act", 
      "attrs": {"act_type": "prelu"}, 
      "inputs": [[415, 0, 0], [416, 0, 0]]
    }, 
    {
      "op": "null", 
      "name": "vargface_stage_3_unit_5_sep2_data_conv2d_pointwise_weight", 
      "attrs": {
        "kernel": "(1, 1)", 
        "no_bias": "True", 
        "num_filter": "160", 
        "num_group": "1", 
        "pad": "(0, 0)", 
        "stride": "(1, 1)", 
        "workspace": "256"
      }, 
      "inputs": []
    }, 
    {
      "op": "Convolution", 
      "name": "vargface_stage_3_unit_5_sep2_data_conv2d_pointwise", 
      "attrs": {
        "kernel": "(1, 1)", 
        "no_bias": "True", 
        "num_filter": "160", 
        "num_group": "1", 
        "pad": "(0, 0)", 
        "stride": "(1, 1)", 
        "workspace": "256"
      }, 
      "inputs": [[417, 0, 0], [418, 0, 0]]
    }, 
    {
      "op": "null", 
      "name": "vargface_stage_3_unit_5_sep2_data_conv2d_pointwise_bn_gamma", 
      "attrs": {
        "eps": "2e-05", 
        "fix_gamma": "False", 
        "momentum": "0.9", 
        "use_global_stats": "False"
      }, 
      "inputs": []
    }, 
    {
      "op": "null", 
      "name": "vargface_stage_3_unit_5_sep2_data_conv2d_pointwise_bn_beta", 
      "attrs": {
        "eps": "2e-05", 
        "fix_gamma": "False", 
        "momentum": "0.9", 
        "use_global_stats": "False"
      }, 
      "inputs": []
    }, 
    {
      "op": "null", 
      "name": "vargface_stage_3_unit_5_sep2_data_conv2d_pointwise_bn_moving_mean", 
      "attrs": {
        "__init__": "[\"zero\", {}]", 
        "eps": "2e-05", 
        "fix_gamma": "False", 
        "momentum": "0.9", 
        "use_global_stats": "False"
      }, 
      "inputs": []
    }, 
    {
      "op": "null", 
      "name": "vargface_stage_3_unit_5_sep2_data_conv2d_pointwise_bn_moving_var", 
      "attrs": {
        "__init__": "[\"one\", {}]", 
        "eps": "2e-05", 
        "fix_gamma": "False", 
        "momentum": "0.9", 
        "use_global_stats": "False"
      }, 
      "inputs": []
    }, 
    {
      "op": "BatchNorm", 
      "name": "vargface_stage_3_unit_5_sep2_data_conv2d_pointwise_bn", 
      "attrs": {
        "eps": "2e-05", 
        "fix_gamma": "False", 
        "momentum": "0.9", 
        "use_global_stats": "False"
      }, 
      "inputs": [[419, 0, 0], [420, 0, 0], [421, 0, 0], [422, 0, 1], [423, 0, 1]]
    }, 
    {
      "op": "elemwise_add", 
      "name": "_plus10", 
      "inputs": [[424, 0, 0], [390, 0, 0]]
    }, 
    {
      "op": "null", 
      "name": "vargface_stage_3_unit_5_out_data_act_gamma", 
      "attrs": {
        "__init__": "[\"Constant\", {\"value\": 0.25}]", 
        "act_type": "prelu"
      }, 
      "inputs": []
    }, 
    {
      "op": "LeakyReLU", 
      "name": "vargface_stage_3_unit_5_out_data_act", 
      "attrs": {"act_type": "prelu"}, 
      "inputs": [[425, 0, 0], [426, 0, 0]]
    }, 
    {
      "op": "null", 
      "name": "vargface_stage_3_unit_6_sep1_data_conv2d_depthwise_weight", 
      "attrs": {
        "dilate": "(1, 1)", 
        "kernel": "(3, 3)", 
        "no_bias": "True", 
        "num_filter": "320", 
        "num_group": "20", 
        "pad": "(1, 1)", 
        "stride": "(1, 1)", 
        "workspace": "256"
      }, 
      "inputs": []
    }, 
    {
      "op": "Convolution", 
      "name": "vargface_stage_3_unit_6_sep1_data_conv2d_depthwise", 
      "attrs": {
        "dilate": "(1, 1)", 
        "kernel": "(3, 3)", 
        "no_bias": "True", 
        "num_filter": "320", 
        "num_group": "20", 
        "pad": "(1, 1)", 
        "stride": "(1, 1)", 
        "workspace": "256"
      }, 
      "inputs": [[427, 0, 0], [428, 0, 0]]
    }, 
    {
      "op": "null", 
      "name": "vargface_stage_3_unit_6_sep1_data_conv2d_depthwise_bn_gamma", 
      "attrs": {
        "eps": "2e-05", 
        "fix_gamma": "False", 
        "momentum": "0.9", 
        "use_global_stats": "False"
      }, 
      "inputs": []
    }, 
    {
      "op": "null", 
      "name": "vargface_stage_3_unit_6_sep1_data_conv2d_depthwise_bn_beta", 
      "attrs": {
        "eps": "2e-05", 
        "fix_gamma": "False", 
        "momentum": "0.9", 
        "use_global_stats": "False"
      }, 
      "inputs": []
    }, 
    {
      "op": "null", 
      "name": "vargface_stage_3_unit_6_sep1_data_conv2d_depthwise_bn_moving_mean", 
      "attrs": {
        "__init__": "[\"zero\", {}]", 
        "eps": "2e-05", 
        "fix_gamma": "False", 
        "momentum": "0.9", 
        "use_global_stats": "False"
      }, 
      "inputs": []
    }, 
    {
      "op": "null", 
      "name": "vargface_stage_3_unit_6_sep1_data_conv2d_depthwise_bn_moving_var", 
      "attrs": {
        "__init__": "[\"one\", {}]", 
        "eps": "2e-05", 
        "fix_gamma": "False", 
        "momentum": "0.9", 
        "use_global_stats": "False"
      }, 
      "inputs": []
    }, 
    {
      "op": "BatchNorm", 
      "name": "vargface_stage_3_unit_6_sep1_data_conv2d_depthwise_bn", 
      "attrs": {
        "eps": "2e-05", 
        "fix_gamma": "False", 
        "momentum": "0.9", 
        "use_global_stats": "False"
      }, 
      "inputs": [[429, 0, 0], [430, 0, 0], [431, 0, 0], [432, 0, 1], [433, 0, 1]]
    }, 
    {
      "op": "null", 
      "name": "vargface_stage_3_unit_6_sep1_data_conv2d_depthwise_act_gamma", 
      "attrs": {
        "__init__": "[\"Constant\", {\"value\": 0.25}]", 
        "act_type": "prelu"
      }, 
      "inputs": []
    }, 
    {
      "op": "LeakyReLU", 
      "name": "vargface_stage_3_unit_6_sep1_data_conv2d_depthwise_act", 
      "attrs": {"act_type": "prelu"}, 
      "inputs": [[434, 0, 0], [435, 0, 0]]
    }, 
    {
      "op": "null", 
      "name": "vargface_stage_3_unit_6_sep1_data_conv2d_pointwise_weight", 
      "attrs": {
        "kernel": "(1, 1)", 
        "no_bias": "True", 
        "num_filter": "160", 
        "num_group": "1", 
        "pad": "(0, 0)", 
        "stride": "(1, 1)", 
        "workspace": "256"
      }, 
      "inputs": []
    }, 
    {
      "op": "Convolution", 
      "name": "vargface_stage_3_unit_6_sep1_data_conv2d_pointwise", 
      "attrs": {
        "kernel": "(1, 1)", 
        "no_bias": "True", 
        "num_filter": "160", 
        "num_group": "1", 
        "pad": "(0, 0)", 
        "stride": "(1, 1)", 
        "workspace": "256"
      }, 
      "inputs": [[436, 0, 0], [437, 0, 0]]
    }, 
    {
      "op": "null", 
      "name": "vargface_stage_3_unit_6_sep1_data_conv2d_pointwise_bn_gamma", 
      "attrs": {
        "eps": "2e-05", 
        "fix_gamma": "False", 
        "momentum": "0.9", 
        "use_global_stats": "False"
      }, 
      "inputs": []
    }, 
    {
      "op": "null", 
      "name": "vargface_stage_3_unit_6_sep1_data_conv2d_pointwise_bn_beta", 
      "attrs": {
        "eps": "2e-05", 
        "fix_gamma": "False", 
        "momentum": "0.9", 
        "use_global_stats": "False"
      }, 
      "inputs": []
    }, 
    {
      "op": "null", 
      "name": "vargface_stage_3_unit_6_sep1_data_conv2d_pointwise_bn_moving_mean", 
      "attrs": {
        "__init__": "[\"zero\", {}]", 
        "eps": "2e-05", 
        "fix_gamma": "False", 
        "momentum": "0.9", 
        "use_global_stats": "False"
      }, 
      "inputs": []
    }, 
    {
      "op": "null", 
      "name": "vargface_stage_3_unit_6_sep1_data_conv2d_pointwise_bn_moving_var", 
      "attrs": {
        "__init__": "[\"one\", {}]", 
        "eps": "2e-05", 
        "fix_gamma": "False", 
        "momentum": "0.9", 
        "use_global_stats": "False"
      }, 
      "inputs": []
    }, 
    {
      "op": "BatchNorm", 
      "name": "vargface_stage_3_unit_6_sep1_data_conv2d_pointwise_bn", 
      "attrs": {
        "eps": "2e-05", 
        "fix_gamma": "False", 
        "momentum": "0.9", 
        "use_global_stats": "False"
      }, 
      "inputs": [[438, 0, 0], [439, 0, 0], [440, 0, 0], [441, 0, 1], [442, 0, 1]]
    }, 
    {
      "op": "null", 
      "name": "vargface_stage_3_unit_6_sep1_data_conv2d_pointwise_act_gamma", 
      "attrs": {
        "__init__": "[\"Constant\", {\"value\": 0.25}]", 
        "act_type": "prelu"
      }, 
      "inputs": []
    }, 
    {
      "op": "LeakyReLU", 
      "name": "vargface_stage_3_unit_6_sep1_data_conv2d_pointwise_act", 
      "attrs": {"act_type": "prelu"}, 
      "inputs": [[443, 0, 0], [444, 0, 0]]
    }, 
    {
      "op": "null", 
      "name": "vargface_stage_3_unit_6_sep2_data_conv2d_depthwise_weight", 
      "attrs": {
        "dilate": "(1, 1)", 
        "kernel": "(3, 3)", 
        "no_bias": "True", 
        "num_filter": "320", 
        "num_group": "20", 
        "pad": "(1, 1)", 
        "stride": "(1, 1)", 
        "workspace": "256"
      }, 
      "inputs": []
    }, 
    {
      "op": "Convolution", 
      "name": "vargface_stage_3_unit_6_sep2_data_conv2d_depthwise", 
      "attrs": {
        "dilate": "(1, 1)", 
        "kernel": "(3, 3)", 
        "no_bias": "True", 
        "num_filter": "320", 
        "num_group": "20", 
        "pad": "(1, 1)", 
        "stride": "(1, 1)", 
        "workspace": "256"
      }, 
      "inputs": [[445, 0, 0], [446, 0, 0]]
    }, 
    {
      "op": "null", 
      "name": "vargface_stage_3_unit_6_sep2_data_conv2d_depthwise_bn_gamma", 
      "attrs": {
        "eps": "2e-05", 
        "fix_gamma": "False", 
        "momentum": "0.9", 
        "use_global_stats": "False"
      }, 
      "inputs": []
    }, 
    {
      "op": "null", 
      "name": "vargface_stage_3_unit_6_sep2_data_conv2d_depthwise_bn_beta", 
      "attrs": {
        "eps": "2e-05", 
        "fix_gamma": "False", 
        "momentum": "0.9", 
        "use_global_stats": "False"
      }, 
      "inputs": []
    }, 
    {
      "op": "null", 
      "name": "vargface_stage_3_unit_6_sep2_data_conv2d_depthwise_bn_moving_mean", 
      "attrs": {
        "__init__": "[\"zero\", {}]", 
        "eps": "2e-05", 
        "fix_gamma": "False", 
        "momentum": "0.9", 
        "use_global_stats": "False"
      }, 
      "inputs": []
    }, 
    {
      "op": "null", 
      "name": "vargface_stage_3_unit_6_sep2_data_conv2d_depthwise_bn_moving_var", 
      "attrs": {
        "__init__": "[\"one\", {}]", 
        "eps": "2e-05", 
        "fix_gamma": "False", 
        "momentum": "0.9", 
        "use_global_stats": "False"
      }, 
      "inputs": []
    }, 
    {
      "op": "BatchNorm", 
      "name": "vargface_stage_3_unit_6_sep2_data_conv2d_depthwise_bn", 
      "attrs": {
        "eps": "2e-05", 
        "fix_gamma": "False", 
        "momentum": "0.9", 
        "use_global_stats": "False"
      }, 
      "inputs": [[447, 0, 0], [448, 0, 0], [449, 0, 0], [450, 0, 1], [451, 0, 1]]
    }, 
    {
      "op": "null", 
      "name": "vargface_stage_3_unit_6_sep2_data_conv2d_depthwise_act_gamma", 
      "attrs": {
        "__init__": "[\"Constant\", {\"value\": 0.25}]", 
        "act_type": "prelu"
      }, 
      "inputs": []
    }, 
    {
      "op": "LeakyReLU", 
      "name": "vargface_stage_3_unit_6_sep2_data_conv2d_depthwise_act", 
      "attrs": {"act_type": "prelu"}, 
      "inputs": [[452, 0, 0], [453, 0, 0]]
    }, 
    {
      "op": "null", 
      "name": "vargface_stage_3_unit_6_sep2_data_conv2d_pointwise_weight", 
      "attrs": {
        "kernel": "(1, 1)", 
        "no_bias": "True", 
        "num_filter": "160", 
        "num_group": "1", 
        "pad": "(0, 0)", 
        "stride": "(1, 1)", 
        "workspace": "256"
      }, 
      "inputs": []
    }, 
    {
      "op": "Convolution", 
      "name": "vargface_stage_3_unit_6_sep2_data_conv2d_pointwise", 
      "attrs": {
        "kernel": "(1, 1)", 
        "no_bias": "True", 
        "num_filter": "160", 
        "num_group": "1", 
        "pad": "(0, 0)", 
        "stride": "(1, 1)", 
        "workspace": "256"
      }, 
      "inputs": [[454, 0, 0], [455, 0, 0]]
    }, 
    {
      "op": "null", 
      "name": "vargface_stage_3_unit_6_sep2_data_conv2d_pointwise_bn_gamma", 
      "attrs": {
        "eps": "2e-05", 
        "fix_gamma": "False", 
        "momentum": "0.9", 
        "use_global_stats": "False"
      }, 
      "inputs": []
    }, 
    {
      "op": "null", 
      "name": "vargface_stage_3_unit_6_sep2_data_conv2d_pointwise_bn_beta", 
      "attrs": {
        "eps": "2e-05", 
        "fix_gamma": "False", 
        "momentum": "0.9", 
        "use_global_stats": "False"
      }, 
      "inputs": []
    }, 
    {
      "op": "null", 
      "name": "vargface_stage_3_unit_6_sep2_data_conv2d_pointwise_bn_moving_mean", 
      "attrs": {
        "__init__": "[\"zero\", {}]", 
        "eps": "2e-05", 
        "fix_gamma": "False", 
        "momentum": "0.9", 
        "use_global_stats": "False"
      }, 
      "inputs": []
    }, 
    {
      "op": "null", 
      "name": "vargface_stage_3_unit_6_sep2_data_conv2d_pointwise_bn_moving_var", 
      "attrs": {
        "__init__": "[\"one\", {}]", 
        "eps": "2e-05", 
        "fix_gamma": "False", 
        "momentum": "0.9", 
        "use_global_stats": "False"
      }, 
      "inputs": []
    }, 
    {
      "op": "BatchNorm", 
      "name": "vargface_stage_3_unit_6_sep2_data_conv2d_pointwise_bn", 
      "attrs": {
        "eps": "2e-05", 
        "fix_gamma": "False", 
        "momentum": "0.9", 
        "use_global_stats": "False"
      }, 
      "inputs": [[456, 0, 0], [457, 0, 0], [458, 0, 0], [459, 0, 1], [460, 0, 1]]
    }, 
    {
      "op": "elemwise_add", 
      "name": "_plus11", 
      "inputs": [[461, 0, 0], [427, 0, 0]]
    }, 
    {
      "op": "null", 
      "name": "vargface_stage_3_unit_6_out_data_act_gamma", 
      "attrs": {
        "__init__": "[\"Constant\", {\"value\": 0.25}]", 
        "act_type": "prelu"
      }, 
      "inputs": []
    }, 
    {
      "op": "LeakyReLU", 
      "name": "vargface_stage_3_unit_6_out_data_act", 
      "attrs": {"act_type": "prelu"}, 
      "inputs": [[462, 0, 0], [463, 0, 0]]
    }, 
    {
      "op": "null", 
      "name": "vargface_stage_3_unit_7_sep1_data_conv2d_depthwise_weight", 
      "attrs": {
        "dilate": "(1, 1)", 
        "kernel": "(3, 3)", 
        "no_bias": "True", 
        "num_filter": "320", 
        "num_group": "20", 
        "pad": "(1, 1)", 
        "stride": "(1, 1)", 
        "workspace": "256"
      }, 
      "inputs": []
    }, 
    {
      "op": "Convolution", 
      "name": "vargface_stage_3_unit_7_sep1_data_conv2d_depthwise", 
      "attrs": {
        "dilate": "(1, 1)", 
        "kernel": "(3, 3)", 
        "no_bias": "True", 
        "num_filter": "320", 
        "num_group": "20", 
        "pad": "(1, 1)", 
        "stride": "(1, 1)", 
        "workspace": "256"
      }, 
      "inputs": [[464, 0, 0], [465, 0, 0]]
    }, 
    {
      "op": "null", 
      "name": "vargface_stage_3_unit_7_sep1_data_conv2d_depthwise_bn_gamma", 
      "attrs": {
        "eps": "2e-05", 
        "fix_gamma": "False", 
        "momentum": "0.9", 
        "use_global_stats": "False"
      }, 
      "inputs": []
    }, 
    {
      "op": "null", 
      "name": "vargface_stage_3_unit_7_sep1_data_conv2d_depthwise_bn_beta", 
      "attrs": {
        "eps": "2e-05", 
        "fix_gamma": "False", 
        "momentum": "0.9", 
        "use_global_stats": "False"
      }, 
      "inputs": []
    }, 
    {
      "op": "null", 
      "name": "vargface_stage_3_unit_7_sep1_data_conv2d_depthwise_bn_moving_mean", 
      "attrs": {
        "__init__": "[\"zero\", {}]", 
        "eps": "2e-05", 
        "fix_gamma": "False", 
        "momentum": "0.9", 
        "use_global_stats": "False"
      }, 
      "inputs": []
    }, 
    {
      "op": "null", 
      "name": "vargface_stage_3_unit_7_sep1_data_conv2d_depthwise_bn_moving_var", 
      "attrs": {
        "__init__": "[\"one\", {}]", 
        "eps": "2e-05", 
        "fix_gamma": "False", 
        "momentum": "0.9", 
        "use_global_stats": "False"
      }, 
      "inputs": []
    }, 
    {
      "op": "BatchNorm", 
      "name": "vargface_stage_3_unit_7_sep1_data_conv2d_depthwise_bn", 
      "attrs": {
        "eps": "2e-05", 
        "fix_gamma": "False", 
        "momentum": "0.9", 
        "use_global_stats": "False"
      }, 
      "inputs": [[466, 0, 0], [467, 0, 0], [468, 0, 0], [469, 0, 1], [470, 0, 1]]
    }, 
    {
      "op": "null", 
      "name": "vargface_stage_3_unit_7_sep1_data_conv2d_depthwise_act_gamma", 
      "attrs": {
        "__init__": "[\"Constant\", {\"value\": 0.25}]", 
        "act_type": "prelu"
      }, 
      "inputs": []
    }, 
    {
      "op": "LeakyReLU", 
      "name": "vargface_stage_3_unit_7_sep1_data_conv2d_depthwise_act", 
      "attrs": {"act_type": "prelu"}, 
      "inputs": [[471, 0, 0], [472, 0, 0]]
    }, 
    {
      "op": "null", 
      "name": "vargface_stage_3_unit_7_sep1_data_conv2d_pointwise_weight", 
      "attrs": {
        "kernel": "(1, 1)", 
        "no_bias": "True", 
        "num_filter": "160", 
        "num_group": "1", 
        "pad": "(0, 0)", 
        "stride": "(1, 1)", 
        "workspace": "256"
      }, 
      "inputs": []
    }, 
    {
      "op": "Convolution", 
      "name": "vargface_stage_3_unit_7_sep1_data_conv2d_pointwise", 
      "attrs": {
        "kernel": "(1, 1)", 
        "no_bias": "True", 
        "num_filter": "160", 
        "num_group": "1", 
        "pad": "(0, 0)", 
        "stride": "(1, 1)", 
        "workspace": "256"
      }, 
      "inputs": [[473, 0, 0], [474, 0, 0]]
    }, 
    {
      "op": "null", 
      "name": "vargface_stage_3_unit_7_sep1_data_conv2d_pointwise_bn_gamma", 
      "attrs": {
        "eps": "2e-05", 
        "fix_gamma": "False", 
        "momentum": "0.9", 
        "use_global_stats": "False"
      }, 
      "inputs": []
    }, 
    {
      "op": "null", 
      "name": "vargface_stage_3_unit_7_sep1_data_conv2d_pointwise_bn_beta", 
      "attrs": {
        "eps": "2e-05", 
        "fix_gamma": "False", 
        "momentum": "0.9", 
        "use_global_stats": "False"
      }, 
      "inputs": []
    }, 
    {
      "op": "null", 
      "name": "vargface_stage_3_unit_7_sep1_data_conv2d_pointwise_bn_moving_mean", 
      "attrs": {
        "__init__": "[\"zero\", {}]", 
        "eps": "2e-05", 
        "fix_gamma": "False", 
        "momentum": "0.9", 
        "use_global_stats": "False"
      }, 
      "inputs": []
    }, 
    {
      "op": "null", 
      "name": "vargface_stage_3_unit_7_sep1_data_conv2d_pointwise_bn_moving_var", 
      "attrs": {
        "__init__": "[\"one\", {}]", 
        "eps": "2e-05", 
        "fix_gamma": "False", 
        "momentum": "0.9", 
        "use_global_stats": "False"
      }, 
      "inputs": []
    }, 
    {
      "op": "BatchNorm", 
      "name": "vargface_stage_3_unit_7_sep1_data_conv2d_pointwise_bn", 
      "attrs": {
        "eps": "2e-05", 
        "fix_gamma": "False", 
        "momentum": "0.9", 
        "use_global_stats": "False"
      }, 
      "inputs": [[475, 0, 0], [476, 0, 0], [477, 0, 0], [478, 0, 1], [479, 0, 1]]
    }, 
    {
      "op": "null", 
      "name": "vargface_stage_3_unit_7_sep1_data_conv2d_pointwise_act_gamma", 
      "attrs": {
        "__init__": "[\"Constant\", {\"value\": 0.25}]", 
        "act_type": "prelu"
      }, 
      "inputs": []
    }, 
    {
      "op": "LeakyReLU", 
      "name": "vargface_stage_3_unit_7_sep1_data_conv2d_pointwise_act", 
      "attrs": {"act_type": "prelu"}, 
      "inputs": [[480, 0, 0], [481, 0, 0]]
    }, 
    {
      "op": "null", 
      "name": "vargface_stage_3_unit_7_sep2_data_conv2d_depthwise_weight", 
      "attrs": {
        "dilate": "(1, 1)", 
        "kernel": "(3, 3)", 
        "no_bias": "True", 
        "num_filter": "320", 
        "num_group": "20", 
        "pad": "(1, 1)", 
        "stride": "(1, 1)", 
        "workspace": "256"
      }, 
      "inputs": []
    }, 
    {
      "op": "Convolution", 
      "name": "vargface_stage_3_unit_7_sep2_data_conv2d_depthwise", 
      "attrs": {
        "dilate": "(1, 1)", 
        "kernel": "(3, 3)", 
        "no_bias": "True", 
        "num_filter": "320", 
        "num_group": "20", 
        "pad": "(1, 1)", 
        "stride": "(1, 1)", 
        "workspace": "256"
      }, 
      "inputs": [[482, 0, 0], [483, 0, 0]]
    }, 
    {
      "op": "null", 
      "name": "vargface_stage_3_unit_7_sep2_data_conv2d_depthwise_bn_gamma", 
      "attrs": {
        "eps": "2e-05", 
        "fix_gamma": "False", 
        "momentum": "0.9", 
        "use_global_stats": "False"
      }, 
      "inputs": []
    }, 
    {
      "op": "null", 
      "name": "vargface_stage_3_unit_7_sep2_data_conv2d_depthwise_bn_beta", 
      "attrs": {
        "eps": "2e-05", 
        "fix_gamma": "False", 
        "momentum": "0.9", 
        "use_global_stats": "False"
      }, 
      "inputs": []
    }, 
    {
      "op": "null", 
      "name": "vargface_stage_3_unit_7_sep2_data_conv2d_depthwise_bn_moving_mean", 
      "attrs": {
        "__init__": "[\"zero\", {}]", 
        "eps": "2e-05", 
        "fix_gamma": "False", 
        "momentum": "0.9", 
        "use_global_stats": "False"
      }, 
      "inputs": []
    }, 
    {
      "op": "null", 
      "name": "vargface_stage_3_unit_7_sep2_data_conv2d_depthwise_bn_moving_var", 
      "attrs": {
        "__init__": "[\"one\", {}]", 
        "eps": "2e-05", 
        "fix_gamma": "False", 
        "momentum": "0.9", 
        "use_global_stats": "False"
      }, 
      "inputs": []
    }, 
    {
      "op": "BatchNorm", 
      "name": "vargface_stage_3_unit_7_sep2_data_conv2d_depthwise_bn", 
      "attrs": {
        "eps": "2e-05", 
        "fix_gamma": "False", 
        "momentum": "0.9", 
        "use_global_stats": "False"
      }, 
      "inputs": [[484, 0, 0], [485, 0, 0], [486, 0, 0], [487, 0, 1], [488, 0, 1]]
    }, 
    {
      "op": "null", 
      "name": "vargface_stage_3_unit_7_sep2_data_conv2d_depthwise_act_gamma", 
      "attrs": {
        "__init__": "[\"Constant\", {\"value\": 0.25}]", 
        "act_type": "prelu"
      }, 
      "inputs": []
    }, 
    {
      "op": "LeakyReLU", 
      "name": "vargface_stage_3_unit_7_sep2_data_conv2d_depthwise_act", 
      "attrs": {"act_type": "prelu"}, 
      "inputs": [[489, 0, 0], [490, 0, 0]]
    }, 
    {
      "op": "null", 
      "name": "vargface_stage_3_unit_7_sep2_data_conv2d_pointwise_weight", 
      "attrs": {
        "kernel": "(1, 1)", 
        "no_bias": "True", 
        "num_filter": "160", 
        "num_group": "1", 
        "pad": "(0, 0)", 
        "stride": "(1, 1)", 
        "workspace": "256"
      }, 
      "inputs": []
    }, 
    {
      "op": "Convolution", 
      "name": "vargface_stage_3_unit_7_sep2_data_conv2d_pointwise", 
      "attrs": {
        "kernel": "(1, 1)", 
        "no_bias": "True", 
        "num_filter": "160", 
        "num_group": "1", 
        "pad": "(0, 0)", 
        "stride": "(1, 1)", 
        "workspace": "256"
      }, 
      "inputs": [[491, 0, 0], [492, 0, 0]]
    }, 
    {
      "op": "null", 
      "name": "vargface_stage_3_unit_7_sep2_data_conv2d_pointwise_bn_gamma", 
      "attrs": {
        "eps": "2e-05", 
        "fix_gamma": "False", 
        "momentum": "0.9", 
        "use_global_stats": "False"
      }, 
      "inputs": []
    }, 
    {
      "op": "null", 
      "name": "vargface_stage_3_unit_7_sep2_data_conv2d_pointwise_bn_beta", 
      "attrs": {
        "eps": "2e-05", 
        "fix_gamma": "False", 
        "momentum": "0.9", 
        "use_global_stats": "False"
      }, 
      "inputs": []
    }, 
    {
      "op": "null", 
      "name": "vargface_stage_3_unit_7_sep2_data_conv2d_pointwise_bn_moving_mean", 
      "attrs": {
        "__init__": "[\"zero\", {}]", 
        "eps": "2e-05", 
        "fix_gamma": "False", 
        "momentum": "0.9", 
        "use_global_stats": "False"
      }, 
      "inputs": []
    }, 
    {
      "op": "null", 
      "name": "vargface_stage_3_unit_7_sep2_data_conv2d_pointwise_bn_moving_var", 
      "attrs": {
        "__init__": "[\"one\", {}]", 
        "eps": "2e-05", 
        "fix_gamma": "False", 
        "momentum": "0.9", 
        "use_global_stats": "False"
      }, 
      "inputs": []
    }, 
    {
      "op": "BatchNorm", 
      "name": "vargface_stage_3_unit_7_sep2_data_conv2d_pointwise_bn", 
      "attrs": {
        "eps": "2e-05", 
        "fix_gamma": "False", 
        "momentum": "0.9", 
        "use_global_stats": "False"
      }, 
      "inputs": [[493, 0, 0], [494, 0, 0], [495, 0, 0], [496, 0, 1], [497, 0, 1]]
    }, 
    {
      "op": "elemwise_add", 
      "name": "_plus12", 
      "inputs": [[498, 0, 0], [464, 0, 0]]
    }, 
    {
      "op": "null", 
      "name": "vargface_stage_3_unit_7_out_data_act_gamma", 
…
        "kernel": "(1, 1)", 
        "no_bias": "True", 
        "num_filter": "320", 
        "num_group": "1", 
        "pad": "(0, 0)", 
        "stride": "(1, 1)", 
        "workspace": "256"
      }, 
      "inputs": [[580, 0, 0], [581, 0, 0]]
    }, 
    {
      "op": "null", 
      "name": "vargface_stage_4_unit_2_sep1_data_conv2d_pointwise_bn_gamma", 
      "attrs": {
        "eps": "2e-05", 
        "fix_gamma": "False", 
        "momentum": "0.9", 
        "use_global_stats": "False"
      }, 
      "inputs": []
    }, 
    {
      "op": "null", 
      "name": "vargface_stage_4_unit_2_sep1_data_conv2d_pointwise_bn_beta", 
      "attrs": {
        "eps": "2e-05", 
        "fix_gamma": "False", 
        "momentum": "0.9", 
        "use_global_stats": "False"
      }, 
      "inputs": []
    }, 
    {
      "op": "null", 
      "name": "vargface_stage_4_unit_2_sep1_data_conv2d_pointwise_bn_moving_mean", 
      "attrs": {
        "__init__": "[\"zero\", {}]", 
        "eps": "2e-05", 
        "fix_gamma": "False", 
        "momentum": "0.9", 
        "use_global_stats": "False"
      }, 
      "inputs": []
    }, 
    {
      "op": "null", 
      "name": "vargface_stage_4_unit_2_sep1_data_conv2d_pointwise_bn_moving_var", 
      "attrs": {
        "__init__": "[\"one\", {}]", 
        "eps": "2e-05", 
        "fix_gamma": "False", 
        "momentum": "0.9", 
        "use_global_stats": "False"
      }, 
      "inputs": []
    }, 
    {
      "op": "BatchNorm", 
      "name": "vargface_stage_4_unit_2_sep1_data_conv2d_pointwise_bn", 
      "attrs": {
        "eps": "2e-05", 
        "fix_gamma": "False", 
        "momentum": "0.9", 
        "use_global_stats": "False"
      }, 
      "inputs": [[582, 0, 0], [583, 0, 0], [584, 0, 0], [585, 0, 1], [586, 0, 1]]
    }, 
    {
      "op": "null", 
      "name": "vargface_stage_4_unit_2_sep1_data_conv2d_pointwise_act_gamma", 
      "attrs": {
        "__init__": "[\"Constant\", {\"value\": 0.25}]", 
        "act_type": "prelu"
      }, 
      "inputs": []
    }, 
    {
      "op": "LeakyReLU", 
      "name": "vargface_stage_4_unit_2_sep1_data_conv2d_pointwise_act", 
      "attrs": {"act_type": "prelu"}, 
      "inputs": [[587, 0, 0], [588, 0, 0]]
    }, 
    {
      "op": "null", 
      "name": "vargface_stage_4_unit_2_sep2_data_conv2d_depthwise_weight", 
      "attrs": {
        "dilate": "(1, 1)", 
        "kernel": "(3, 3)", 
        "no_bias": "True", 
        "num_filter": "640", 
        "num_group": "40", 
        "pad": "(1, 1)", 
        "stride": "(1, 1)", 
        "workspace": "256"
      }, 
      "inputs": []
    }, 
    {
      "op": "Convolution", 
      "name": "vargface_stage_4_unit_2_sep2_data_conv2d_depthwise", 
      "attrs": {
        "dilate": "(1, 1)", 
        "kernel": "(3, 3)", 
        "no_bias": "True", 
        "num_filter": "640", 
        "num_group": "40", 
        "pad": "(1, 1)", 
        "stride": "(1, 1)", 
        "workspace": "256"
      }, 
      "inputs": [[589, 0, 0], [590, 0, 0]]
    }, 
    {
      "op": "null", 
      "name": "vargface_stage_4_unit_2_sep2_data_conv2d_depthwise_bn_gamma", 
      "attrs": {
        "eps": "2e-05", 
        "fix_gamma": "False", 
        "momentum": "0.9", 
        "use_global_stats": "False"
      }, 
      "inputs": []
    }, 
    {
      "op": "null", 
      "name": "vargface_stage_4_unit_2_sep2_data_conv2d_depthwise_bn_beta", 
      "attrs": {
        "eps": "2e-05", 
        "fix_gamma": "False", 
        "momentum": "0.9", 
        "use_global_stats": "False"
      }, 
      "inputs": []
    }, 
    {
      "op": "null", 
      "name": "vargface_stage_4_unit_2_sep2_data_conv2d_depthwise_bn_moving_mean", 
      "attrs": {
        "__init__": "[\"zero\", {}]", 
        "eps": "2e-05", 
        "fix_gamma": "False", 
        "momentum": "0.9", 
        "use_global_stats": "False"
      }, 
      "inputs": []
    }, 
    {
      "op": "null", 
      "name": "vargface_stage_4_unit_2_sep2_data_conv2d_depthwise_bn_moving_var", 
      "attrs": {
        "__init__": "[\"one\", {}]", 
        "eps": "2e-05", 
        "fix_gamma": "False", 
        "momentum": "0.9", 
        "use_global_stats": "False"
      }, 
      "inputs": []
    }, 
    {
      "op": "BatchNorm", 
      "name": "vargface_stage_4_unit_2_sep2_data_conv2d_depthwise_bn", 
      "attrs": {
        "eps": "2e-05", 
        "fix_gamma": "False", 
        "momentum": "0.9", 
        "use_global_stats": "False"
      }, 
      "inputs": [[591, 0, 0], [592, 0, 0], [593, 0, 0], [594, 0, 1], [595, 0, 1]]
    }, 
    {
      "op": "null", 
      "name": "vargface_stage_4_unit_2_sep2_data_conv2d_depthwise_act_gamma", 
      "attrs": {
        "__init__": "[\"Constant\", {\"value\": 0.25}]", 
        "act_type": "prelu"
      }, 
      "inputs": []
    }, 
    {
      "op": "LeakyReLU", 
      "name": "vargface_stage_4_unit_2_sep2_data_conv2d_depthwise_act", 
      "attrs": {"act_type": "prelu"}, 
      "inputs": [[596, 0, 0], [597, 0, 0]]
    }, 
    {
      "op": "null", 
      "name": "vargface_stage_4_unit_2_sep2_data_conv2d_pointwise_weight", 
      "attrs": {
        "kernel": "(1, 1)", 
        "no_bias": "True", 
        "num_filter": "320", 
        "num_group": "1", 
        "pad": "(0, 0)", 
        "stride": "(1, 1)", 
        "workspace": "256"
      }, 
      "inputs": []
    }, 
    {
      "op": "Convolution", 
      "name": "vargface_stage_4_unit_2_sep2_data_conv2d_pointwise", 
      "attrs": {
        "kernel": "(1, 1)", 
        "no_bias": "True", 
        "num_filter": "320", 
        "num_group": "1", 
        "pad": "(0, 0)", 
        "stride": "(1, 1)", 
        "workspace": "256"
      }, 
      "inputs": [[598, 0, 0], [599, 0, 0]]
    }, 
    {
      "op": "null", 
      "name": "vargface_stage_4_unit_2_sep2_data_conv2d_pointwise_bn_gamma", 
      "attrs": {
        "eps": "2e-05", 
        "fix_gamma": "False", 
        "momentum": "0.9", 
        "use_global_stats": "False"
      }, 
      "inputs": []
    }, 
    {
      "op": "null", 
      "name": "vargface_stage_4_unit_2_sep2_data_conv2d_pointwise_bn_beta", 
      "attrs": {
        "eps": "2e-05", 
        "fix_gamma": "False", 
        "momentum": "0.9", 
        "use_global_stats": "False"
      }, 
      "inputs": []
    }, 
    {
      "op": "null", 
      "name": "vargface_stage_4_unit_2_sep2_data_conv2d_pointwise_bn_moving_mean", 
      "attrs": {
        "__init__": "[\"zero\", {}]", 
        "eps": "2e-05", 
        "fix_gamma": "False", 
        "momentum": "0.9", 
        "use_global_stats": "False"
      }, 
      "inputs": []
    }, 
    {
      "op": "null", 
      "name": "vargface_stage_4_unit_2_sep2_data_conv2d_pointwise_bn_moving_var", 
      "attrs": {
        "__init__": "[\"one\", {}]", 
        "eps": "2e-05", 
        "fix_gamma": "False", 
        "momentum": "0.9", 
        "use_global_stats": "False"
      }, 
      "inputs": []
    }, 
    {
      "op": "BatchNorm", 
      "name": "vargface_stage_4_unit_2_sep2_data_conv2d_pointwise_bn", 
      "attrs": {
        "eps": "2e-05", 
        "fix_gamma": "False", 
        "momentum": "0.9", 
        "use_global_stats": "False"
      }, 
      "inputs": [[600, 0, 0], [601, 0, 0], [602, 0, 0], [603, 0, 1], [604, 0, 1]]
    }, 
    {
      "op": "elemwise_add", 
      "name": "_plus15", 
      "inputs": [[605, 0, 0], [571, 0, 0]]
    }, 
    {
      "op": "null", 
      "name": "vargface_stage_4_unit_2_out_data_act_gamma", 
      "attrs": {
        "__init__": "[\"Constant\", {\"value\": 0.25}]", 
        "act_type": "prelu"
      }, 
      "inputs": []
    }, 
    {
      "op": "LeakyReLU", 
      "name": "vargface_stage_4_unit_2_out_data_act", 
      "attrs": {"act_type": "prelu"}, 
      "inputs": [[606, 0, 0], [607, 0, 0]]
    }, 
    {
      "op": "null", 
      "name": "vargface_stage_4_unit_3_sep1_data_conv2d_depthwise_weight", 
      "attrs": {
        "dilate": "(1, 1)", 
        "kernel": "(3, 3)", 
        "no_bias": "True", 
        "num_filter": "640", 
        "num_group": "40", 
        "pad": "(1, 1)", 
        "stride": "(1, 1)", 
        "workspace": "256"
      }, 
      "inputs": []
    }, 
    {
      "op": "Convolution", 
      "name": "vargface_stage_4_unit_3_sep1_data_conv2d_depthwise", 
      "attrs": {
        "dilate": "(1, 1)", 
        "kernel": "(3, 3)", 
        "no_bias": "True", 
        "num_filter": "640", 
        "num_group": "40", 
        "pad": "(1, 1)", 
        "stride": "(1, 1)", 
        "workspace": "256"
      }, 
      "inputs": [[608, 0, 0], [609, 0, 0]]
    }, 
    {
      "op": "null", 
      "name": "vargface_stage_4_unit_3_sep1_data_conv2d_depthwise_bn_gamma", 
      "attrs": {
        "eps": "2e-05", 
        "fix_gamma": "False", 
        "momentum": "0.9", 
        "use_global_stats": "False"
      }, 
      "inputs": []
    }, 
    {
      "op": "null", 
      "name": "vargface_stage_4_unit_3_sep1_data_conv2d_depthwise_bn_beta", 
      "attrs": {
        "eps": "2e-05", 
        "fix_gamma": "False", 
        "momentum": "0.9", 
        "use_global_stats": "False"
      }, 
      "inputs": []
    }, 
    {
      "op": "null", 
      "name": "vargface_stage_4_unit_3_sep1_data_conv2d_depthwise_bn_moving_mean", 
      "attrs": {
        "__init__": "[\"zero\", {}]", 
        "eps": "2e-05", 
        "fix_gamma": "False", 
        "momentum": "0.9", 
        "use_global_stats": "False"
      }, 
      "inputs": []
    }, 
    {
      "op": "null", 
      "name": "vargface_stage_4_unit_3_sep1_data_conv2d_depthwise_bn_moving_var", 
      "attrs": {
        "__init__": "[\"one\", {}]", 
        "eps": "2e-05", 
        "fix_gamma": "False", 
        "momentum": "0.9", 
        "use_global_stats": "False"
      }, 
      "inputs": []
    }, 
    {
      "op": "BatchNorm", 
      "name": "vargface_stage_4_unit_3_sep1_data_conv2d_depthwise_bn", 
      "attrs": {
        "eps": "2e-05", 
        "fix_gamma": "False", 
        "momentum": "0.9", 
        "use_global_stats": "False"
      }, 
      "inputs": [[610, 0, 0], [611, 0, 0], [612, 0, 0], [613, 0, 1], [614, 0, 1]]
    }, 
    {
      "op": "null", 
      "name": "vargface_stage_4_unit_3_sep1_data_conv2d_depthwise_act_gamma", 
      "attrs": {
        "__init__": "[\"Constant\", {\"value\": 0.25}]", 
        "act_type": "prelu"
      }, 
      "inputs": []
    }, 
    {
      "op": "LeakyReLU", 
      "name": "vargface_stage_4_unit_3_sep1_data_conv2d_depthwise_act", 
      "attrs": {"act_type": "prelu"}, 
      "inputs": [[615, 0, 0], [616, 0, 0]]
    }, 
    {
      "op": "null", 
      "name": "vargface_stage_4_unit_3_sep1_data_conv2d_pointwise_weight", 
      "attrs": {
        "kernel": "(1, 1)", 
        "no_bias": "True", 
        "num_filter": "320", 
        "num_group": "1", 
        "pad": "(0, 0)", 
        "stride": "(1, 1)", 
        "workspace": "256"
      }, 
      "inputs": []
    }, 
    {
      "op": "Convolution", 
      "name": "vargface_stage_4_unit_3_sep1_data_conv2d_pointwise", 
      "attrs": {
        "kernel": "(1, 1)", 
        "no_bias": "True", 
        "num_filter": "320", 
        "num_group": "1", 
        "pad": "(0, 0)", 
        "stride": "(1, 1)", 
        "workspace": "256"
      }, 
      "inputs": [[617, 0, 0], [618, 0, 0]]
    }, 
    {
      "op": "null", 
      "name": "vargface_stage_4_unit_3_sep1_data_conv2d_pointwise_bn_gamma", 
      "attrs": {
        "eps": "2e-05", 
        "fix_gamma": "False", 
        "momentum": "0.9", 
        "use_global_stats": "False"
      }, 
      "inputs": []
    }, 
    {
      "op": "null", 
      "name": "vargface_stage_4_unit_3_sep1_data_conv2d_pointwise_bn_beta", 
      "attrs": {
        "eps": "2e-05", 
        "fix_gamma": "False", 
        "momentum": "0.9", 
        "use_global_stats": "False"
      }, 
      "inputs": []
    }, 
    {
      "op": "null", 
      "name": "vargface_stage_4_unit_3_sep1_data_conv2d_pointwise_bn_moving_mean", 
      "attrs": {
        "__init__": "[\"zero\", {}]", 
        "eps": "2e-05", 
        "fix_gamma": "False", 
        "momentum": "0.9", 
        "use_global_stats": "False"
      }, 
      "inputs": []
    }, 
    {
      "op": "null", 
      "name": "vargface_stage_4_unit_3_sep1_data_conv2d_pointwise_bn_moving_var", 
      "attrs": {
        "__init__": "[\"one\", {}]", 
        "eps": "2e-05", 
        "fix_gamma": "False", 
        "momentum": "0.9", 
        "use_global_stats": "False"
      }, 
      "inputs": []
    }, 
    {
      "op": "BatchNorm", 
      "name": "vargface_stage_4_unit_3_sep1_data_conv2d_pointwise_bn", 
      "attrs": {
        "eps": "2e-05", 
        "fix_gamma": "False", 
        "momentum": "0.9", 
        "use_global_stats": "False"
      }, 
      "inputs": [[619, 0, 0], [620, 0, 0], [621, 0, 0], [622, 0, 1], [623, 0, 1]]
    }, 
    {
      "op": "null", 
      "name": "vargface_stage_4_unit_3_sep1_data_conv2d_pointwise_act_gamma", 
      "attrs": {
        "__init__": "[\"Constant\", {\"value\": 0.25}]", 
        "act_type": "prelu"
      }, 
      "inputs": []
    }, 
    {
      "op": "LeakyReLU", 
      "name": "vargface_stage_4_unit_3_sep1_data_conv2d_pointwise_act", 
      "attrs": {"act_type": "prelu"}, 
      "inputs": [[624, 0, 0], [625, 0, 0]]
    }, 
    {
      "op": "null", 
      "name": "vargface_stage_4_unit_3_sep2_data_conv2d_depthwise_weight", 
      "attrs": {
        "dilate": "(1, 1)", 
        "kernel": "(3, 3)", 
        "no_bias": "True", 
        "num_filter": "640", 
        "num_group": "40", 
        "pad": "(1, 1)", 
        "stride": "(1, 1)", 
        "workspace": "256"
      }, 
      "inputs": []
    }, 
    {
      "op": "Convolution", 
      "name": "vargface_stage_4_unit_3_sep2_data_conv2d_depthwise", 
      "attrs": {
        "dilate": "(1, 1)", 
        "kernel": "(3, 3)", 
        "no_bias": "True", 
        "num_filter": "640", 
        "num_group": "40", 
        "pad": "(1, 1)", 
        "stride": "(1, 1)", 
        "workspace": "256"
      }, 
      "inputs": [[626, 0, 0], [627, 0, 0]]
    }, 
    {
      "op": "null", 
      "name": "vargface_stage_4_unit_3_sep2_data_conv2d_depthwise_bn_gamma", 
      "attrs": {
        "eps": "2e-05", 
        "fix_gamma": "False", 
        "momentum": "0.9", 
        "use_global_stats": "False"
      }, 
      "inputs": []
    }, 
    {
      "op": "null", 
      "name": "vargface_stage_4_unit_3_sep2_data_conv2d_depthwise_bn_beta", 
      "attrs": {
        "eps": "2e-05", 
        "fix_gamma": "False", 
        "momentum": "0.9", 
        "use_global_stats": "False"
      }, 
      "inputs": []
    }, 
    {
      "op": "null", 
      "name": "vargface_stage_4_unit_3_sep2_data_conv2d_depthwise_bn_moving_mean", 
      "attrs": {
        "__init__": "[\"zero\", {}]", 
        "eps": "2e-05", 
        "fix_gamma": "False", 
        "momentum": "0.9", 
        "use_global_stats": "False"
      }, 
      "inputs": []
    }, 
    {
      "op": "null", 
      "name": "vargface_stage_4_unit_3_sep2_data_conv2d_depthwise_bn_moving_var", 
      "attrs": {
        "__init__": "[\"one\", {}]", 
        "eps": "2e-05", 
        "fix_gamma": "False", 
        "momentum": "0.9", 
        "use_global_stats": "False"
      }, 
      "inputs": []
    }, 
    {
      "op": "BatchNorm", 
      "name": "vargface_stage_4_unit_3_sep2_data_conv2d_depthwise_bn", 
      "attrs": {
        "eps": "2e-05", 
        "fix_gamma": "False", 
        "momentum": "0.9", 
        "use_global_stats": "False"
      }, 
      "inputs": [[628, 0, 0], [629, 0, 0], [630, 0, 0], [631, 0, 1], [632, 0, 1]]
    }, 
    {
      "op": "null", 
      "name": "vargface_stage_4_unit_3_sep2_data_conv2d_depthwise_act_gamma", 
      "attrs": {
        "__init__": "[\"Constant\", {\"value\": 0.25}]", 
        "act_type": "prelu"
      }, 
      "inputs": []
    }, 
    {
      "op": "LeakyReLU", 
      "name": "vargface_stage_4_unit_3_sep2_data_conv2d_depthwise_act", 
      "attrs": {"act_type": "prelu"}, 
      "inputs": [[633, 0, 0], [634, 0, 0]]
    }, 
    {
      "op": "null", 
      "name": "vargface_stage_4_unit_3_sep2_data_conv2d_pointwise_weight", 
      "attrs": {
        "kernel": "(1, 1)", 
        "no_bias": "True", 
        "num_filter": "320", 
        "num_group": "1", 
        "pad": "(0, 0)", 
        "stride": "(1, 1)", 
        "workspace": "256"
      }, 
      "inputs": []
    }, 
    {
      "op": "Convolution", 
      "name": "vargface_stage_4_unit_3_sep2_data_conv2d_pointwise", 
      "attrs": {
        "kernel": "(1, 1)", 
        "no_bias": "True", 
        "num_filter": "320", 
        "num_group": "1", 
        "pad": "(0, 0)", 
        "stride": "(1, 1)", 
        "workspace": "256"
      }, 
      "inputs": [[635, 0, 0], [636, 0, 0]]
    }, 
    {
      "op": "null", 
      "name": "vargface_stage_4_unit_3_sep2_data_conv2d_pointwise_bn_gamma", 
      "attrs": {
        "eps": "2e-05", 
        "fix_gamma": "False", 
        "momentum": "0.9", 
        "use_global_stats": "False"
      }, 
      "inputs": []
    }, 
    {
      "op": "null", 
      "name": "vargface_stage_4_unit_3_sep2_data_conv2d_pointwise_bn_beta", 
      "attrs": {
        "eps": "2e-05", 
        "fix_gamma": "False", 
        "momentum": "0.9", 
        "use_global_stats": "False"
      }, 
      "inputs": []
    }, 
    {
      "op": "null", 
      "name": "vargface_stage_4_unit_3_sep2_data_conv2d_pointwise_bn_moving_mean", 
      "attrs": {
        "__init__": "[\"zero\", {}]", 
        "eps": "2e-05", 
        "fix_gamma": "False", 
        "momentum": "0.9", 
        "use_global_stats": "False"
      }, 
      "inputs": []
    }, 
    {
      "op": "null", 
      "name": "vargface_stage_4_unit_3_sep2_data_conv2d_pointwise_bn_moving_var", 
      "attrs": {
        "__init__": "[\"one\", {}]", 
        "eps": "2e-05", 
        "fix_gamma": "False", 
        "momentum": "0.9", 
        "use_global_stats": "False"
      }, 
      "inputs": []
    }, 
    {
      "op": "BatchNorm", 
      "name": "vargface_stage_4_unit_3_sep2_data_conv2d_pointwise_bn", 
      "attrs": {
        "eps": "2e-05", 
        "fix_gamma": "False", 
        "momentum": "0.9", 
        "use_global_stats": "False"
      }, 
      "inputs": [[637, 0, 0], [638, 0, 0], [639, 0, 0], [640, 0, 1], [641, 0, 1]]
    }, 
    {
      "op": "elemwise_add", 
      "name": "_plus16", 
      "inputs": [[642, 0, 0], [608, 0, 0]]
    }, 
    {
      "op": "null", 
      "name": "vargface_stage_4_unit_3_out_data_act_gamma", 
      "attrs": {
        "__init__": "[\"Constant\", {\"value\": 0.25}]", 
        "act_type": "prelu"
      }, 
      "inputs": []
    }, 
    {
      "op": "LeakyReLU", 
      "name": "vargface_stage_4_unit_3_out_data_act", 
      "attrs": {"act_type": "prelu"}, 
      "inputs": [[643, 0, 0], [644, 0, 0]]
    }, 
    {
      "op": "null", 
      "name": "vargface_stage_4_unit_4_sep1_data_conv2d_depthwise_weight", 
      "attrs": {
        "dilate": "(1, 1)", 
        "kernel": "(3, 3)", 
        "no_bias": "True", 
        "num_filter": "640", 
        "num_group": "40", 
        "pad": "(1, 1)", 
        "stride": "(1, 1)", 
        "workspace": "256"
      }, 
      "inputs": []
    }, 
    {
      "op": "Convolution", 
      "name": "vargface_stage_4_unit_4_sep1_data_conv2d_depthwise", 
      "attrs": {
        "dilate": "(1, 1)", 
        "kernel": "(3, 3)", 
        "no_bias": "True", 
        "num_filter": "640", 
        "num_group": "40", 
        "pad": "(1, 1)", 
        "stride": "(1, 1)", 
        "workspace": "256"
      }, 
      "inputs": [[645, 0, 0], [646, 0, 0]]
    }, 
    {
      "op": "null", 
      "name": "vargface_stage_4_unit_4_sep1_data_conv2d_depthwise_bn_gamma", 
      "attrs": {
        "eps": "2e-05", 
        "fix_gamma": "False", 
        "momentum": "0.9", 
        "use_global_stats": "False"
      }, 
      "inputs": []
    }, 
    {
      "op": "null", 
      "name": "vargface_stage_4_unit_4_sep1_data_conv2d_depthwise_bn_beta", 
      "attrs": {
        "eps": "2e-05", 
        "fix_gamma": "False", 
        "momentum": "0.9", 
        "use_global_stats": "False"
      }, 
      "inputs": []
    }, 
    {
      "op": "null", 
      "name": "vargface_stage_4_unit_4_sep1_data_conv2d_depthwise_bn_moving_mean", 
      "attrs": {
        "__init__": "[\"zero\", {}]", 
        "eps": "2e-05", 
        "fix_gamma": "False", 
        "momentum": "0.9", 
        "use_global_stats": "False"
      }, 
      "inputs": []
    }, 
    {
      "op": "null", 
      "name": "vargface_stage_4_unit_4_sep1_data_conv2d_depthwise_bn_moving_var", 
      "attrs": {
        "__init__": "[\"one\", {}]", 
        "eps": "2e-05", 
        "fix_gamma": "False", 
        "momentum": "0.9", 
        "use_global_stats": "False"
      }, 
      "inputs": []
    }, 
    {
      "op": "BatchNorm", 
      "name": "vargface_stage_4_unit_4_sep1_data_conv2d_depthwise_bn", 
      "attrs": {
        "eps": "2e-05", 
        "fix_gamma": "False", 
        "momentum": "0.9", 
        "use_global_stats": "False"
      }, 
      "inputs": [[647, 0, 0], [648, 0, 0], [649, 0, 0], [650, 0, 1], [651, 0, 1]]
    }, 
    {
      "op": "null", 
      "name": "vargface_stage_4_unit_4_sep1_data_conv2d_depthwise_act_gamma", 
      "attrs": {
        "__init__": "[\"Constant\", {\"value\": 0.25}]", 
        "act_type": "prelu"
      }, 
      "inputs": []
    }, 
    {
      "op": "LeakyReLU", 
      "name": "vargface_stage_4_unit_4_sep1_data_conv2d_depthwise_act", 
      "attrs": {"act_type": "prelu"}, 
      "inputs": [[652, 0, 0], [653, 0, 0]]
    }, 
    {
      "op": "null", 
      "name": "vargface_stage_4_unit_4_sep1_data_conv2d_pointwise_weight", 
      "attrs": {
        "kernel": "(1, 1)", 
        "no_bias": "True", 
        "num_filter": "320", 
        "num_group": "1", 
        "pad": "(0, 0)", 
        "stride": "(1, 1)", 
        "workspace": "256"
      }, 
      "inputs": []
    }, 
    {
      "op": "Convolution", 
      "name": "vargface_stage_4_unit_4_sep1_data_conv2d_pointwise", 
      "attrs": {
        "kernel": "(1, 1)", 
        "no_bias": "True", 
        "num_filter": "320", 
        "num_group": "1", 
        "pad": "(0, 0)", 
        "stride": "(1, 1)", 
        "workspace": "256"
      }, 
      "inputs": [[654, 0, 0], [655, 0, 0]]
    }, 
    {
      "op": "null", 
      "name": "vargface_stage_4_unit_4_sep1_data_conv2d_pointwise_bn_gamma", 
      "attrs": {
        "eps": "2e-05", 
        "fix_gamma": "False", 
        "momentum": "0.9", 
        "use_global_stats": "False"
      }, 
      "inputs": []
    }, 
    {
      "op": "null", 
      "name": "vargface_stage_4_unit_4_sep1_data_conv2d_pointwise_bn_beta", 
      "attrs": {
        "eps": "2e-05", 
        "fix_gamma": "False", 
        "momentum": "0.9", 
        "use_global_stats": "False"
      }, 
      "inputs": []
    }, 
    {
      "op": "null", 
      "name": "vargface_stage_4_unit_4_sep1_data_conv2d_pointwise_bn_moving_mean", 
      "attrs": {
        "__init__": "[\"zero\", {}]", 
        "eps": "2e-05", 
        "fix_gamma": "False", 
        "momentum": "0.9", 
        "use_global_stats": "False"
      }, 
      "inputs": []
    }, 
    {
      "op": "null", 
      "name": "vargface_stage_4_unit_4_sep1_data_conv2d_pointwise_bn_moving_var", 
      "attrs": {
        "__init__": "[\"one\", {}]", 
        "eps": "2e-05", 
        "fix_gamma": "False", 
        "momentum": "0.9", 
        "use_global_stats": "False"
      }, 
      "inputs": []
    }, 
    {
      "op": "BatchNorm", 
      "name": "vargface_stage_4_unit_4_sep1_data_conv2d_pointwise_bn", 
      "attrs": {
        "eps": "2e-05", 
        "fix_gamma": "False", 
        "momentum": "0.9", 
        "use_global_stats": "False"
      }, 
      "inputs": [[656, 0, 0], [657, 0, 0], [658, 0, 0], [659, 0, 1], [660, 0, 1]]
    }, 
    {
      "op": "null", 
      "name": "vargface_stage_4_unit_4_sep1_data_conv2d_pointwise_act_gamma", 
      "attrs": {
        "__init__": "[\"Constant\", {\"value\": 0.25}]", 
        "act_type": "prelu"
      }, 
      "inputs": []
    }, 
    {
      "op": "LeakyReLU", 
      "name": "vargface_stage_4_unit_4_sep1_data_conv2d_pointwise_act", 
      "attrs": {"act_type": "prelu"}, 
      "inputs": [[661, 0, 0], [662, 0, 0]]
    }, 
    {
      "op": "null", 
      "name": "vargface_stage_4_unit_4_sep2_data_conv2d_depthwise_weight", 
      "attrs": {
        "dilate": "(1, 1)", 
        "kernel": "(3, 3)", 
        "no_bias": "True", 
        "num_filter": "640", 
        "num_group": "40", 
        "pad": "(1, 1)", 
        "stride": "(1, 1)", 
        "workspace": "256"
      }, 
      "inputs": []
    }, 
    {
      "op": "Convolution", 
      "name": "vargface_stage_4_unit_4_sep2_data_conv2d_depthwise", 
      "attrs": {
        "dilate": "(1, 1)", 
        "kernel": "(3, 3)", 
        "no_bias": "True", 
        "num_filter": "640", 
        "num_group": "40", 
        "pad": "(1, 1)", 
        "stride": "(1, 1)", 
        "workspace": "256"
      }, 
      "inputs": [[663, 0, 0], [664, 0, 0]]
    }, 
    {
      "op": "null", 
      "name": "vargface_stage_4_unit_4_sep2_data_conv2d_depthwise_bn_gamma", 
      "attrs": {
        "eps": "2e-05", 
        "fix_gamma": "False", 
        "momentum": "0.9", 
        "use_global_stats": "False"
      }, 
      "inputs": []
    }, 
    {
      "op": "null", 
      "name": "vargface_stage_4_unit_4_sep2_data_conv2d_depthwise_bn_beta", 
      "attrs": {
        "eps": "2e-05", 
        "fix_gamma": "False", 
        "momentum": "0.9", 
        "use_global_stats": "False"
      }, 
      "inputs": []
    }, 
    {
      "op": "null", 
      "name": "vargface_stage_4_unit_4_sep2_data_conv2d_depthwise_bn_moving_mean", 
      "attrs": {
        "__init__": "[\"zero\", {}]", 
        "eps": "2e-05", 
        "fix_gamma": "False", 
        "momentum": "0.9", 
        "use_global_stats": "False"
      }, 
      "inputs": []
    }, 
    {
      "op": "null", 
      "name": "vargface_stage_4_unit_4_sep2_data_conv2d_depthwise_bn_moving_var", 
      "attrs": {
        "__init__": "[\"one\", {}]", 
        "eps": "2e-05", 
        "fix_gamma": "False", 
        "momentum": "0.9", 
        "use_global_stats": "False"
      }, 
      "inputs": []
    }, 
    {
      "op": "BatchNorm", 
      "name": "vargface_stage_4_unit_4_sep2_data_conv2d_depthwise_bn", 
      "attrs": {
        "eps": "2e-05", 
        "fix_gamma": "False", 
        "momentum": "0.9", 
        "use_global_stats": "False"
      }, 
      "inputs": [[665, 0, 0], [666, 0, 0], [667, 0, 0], [668, 0, 1], [669, 0, 1]]
    }, 
    {
      "op": "null", 
      "name": "vargface_stage_4_unit_4_sep2_data_conv2d_depthwise_act_gamma", 
      "attrs": {
        "__init__": "[\"Constant\", {\"value\": 0.25}]", 
        "act_type": "prelu"
      }, 
      "inputs": []
    }, 
    {
      "op": "LeakyReLU", 
      "name": "vargface_stage_4_unit_4_sep2_data_conv2d_depthwise_act", 
      "attrs": {"act_type": "prelu"}, 
      "inputs": [[670, 0, 0], [671, 0, 0]]
    }, 
    {
      "op": "null", 
      "name": "vargface_stage_4_unit_4_sep2_data_conv2d_pointwise_weight", 
      "attrs": {
        "kernel": "(1, 1)", 
        "no_bias": "True", 
        "num_filter": "320", 
        "num_group": "1", 
        "pad": "(0, 0)", 
        "stride": "(1, 1)", 
        "workspace": "256"
      }, 
      "inputs": []
    }, 
    {
      "op": "Convolution", 
      "name": "vargface_stage_4_unit_4_sep2_data_conv2d_pointwise", 
      "attrs": {
        "kernel": "(1, 1)", 
        "no_bias": "True", 
        "num_filter": "320", 
        "num_group": "1", 
        "pad": "(0, 0)", 
        "stride": "(1, 1)", 
        "workspace": "256"
      }, 
      "inputs": [[672, 0, 0], [673, 0, 0]]
    }, 
    {
      "op": "null", 
      "name": "vargface_stage_4_unit_4_sep2_data_conv2d_pointwise_bn_gamma", 
      "attrs": {
        "eps": "2e-05", 
        "fix_gamma": "False", 
        "momentum": "0.9", 
        "use_global_stats": "False"
      }, 
      "inputs": []
    }, 
    {
      "op": "null", 
      "name": "vargface_stage_4_unit_4_sep2_data_conv2d_pointwise_bn_beta", 
      "attrs": {
        "eps": "2e-05", 
        "fix_gamma": "False", 
        "momentum": "0.9", 
        "use_global_stats": "False"
      }, 
      "inputs": []
    }, 
    {
      "op": "null", 
      "name": "vargface_stage_4_unit_4_sep2_data_conv2d_pointwise_bn_moving_mean", 
      "attrs": {
        "__init__": "[\"zero\", {}]", 
        "eps": "2e-05", 
        "fix_gamma": "False", 
        "momentum": "0.9", 
        "use_global_stats": "False"
      }, 
      "inputs": []
    }, 
    {
      "op": "null", 
      "name": "vargface_stage_4_unit_4_sep2_data_conv2d_pointwise_bn_moving_var", 
      "attrs": {
        "__init__": "[\"one\", {}]", 
        "eps": "2e-05", 
        "fix_gamma": "False", 
        "momentum": "0.9", 
        "use_global_stats": "False"
      }, 
      "inputs": []
    }, 
    {
      "op": "BatchNorm", 
      "name": "vargface_stage_4_unit_4_sep2_data_conv2d_pointwise_bn", 
      "attrs": {
        "eps": "2e-05", 
        "fix_gamma": "False", 
        "momentum": "0.9", 
        "use_global_stats": "False"
      }, 
      "inputs": [[674, 0, 0], [675, 0, 0], [676, 0, 0], [677, 0, 1], [678, 0, 1]]
    }, 
    {
      "op": "elemwise_add", 
      "name": "_plus17", 
      "inputs": [[679, 0, 0], [645, 0, 0]]
    }, 
    {
      "op": "null", 
      "name": "vargface_stage_4_unit_4_out_data_act_gamma", 
      "attrs": {
        "__init__": "[\"Constant\", {\"value\": 0.25}]", 
        "act_type": "prelu"
      }, 
      "inputs": []
    }, 
    {
      "op": "LeakyReLU", 
      "name": "vargface_stage_4_unit_4_out_data_act", 
      "attrs": {"act_type": "prelu"}, 
      "inputs": [[680, 0, 0], [681, 0, 0]]
    }, 
    {
      "op": "null", 
      "name": "embed_convx_weight", 
      "attrs": {
        "kernel": "(1, 1)", 
        "no_bias": "True", 
        "num_filter": "1024", 
        "pad": "(0, 0)", 
        "stride": "(1, 1)", 
        "workspace": "256"
      }, 
      "inputs": []
    }, 
    {
      "op": "Convolution", 
      "name": "embed_convx", 
      "attrs": {
        "kernel": "(1, 1)", 
        "no_bias": "True", 
        "num_filter": "1024", 
        "pad": "(0, 0)", 
        "stride": "(1, 1)", 
        "workspace": "256"
      }, 
      "inputs": [[682, 0, 0], [683, 0, 0]]
    }, 
    {
      "op": "null", 
      "name": "embed_convx_bn_gamma", 
      "attrs": {
        "eps": "2e-05", 
        "fix_gamma": "False", 
        "momentum": "0.9", 
        "use_global_stats": "False"
      }, 
      "inputs": []
    }, 
    {
      "op": "null", 
      "name": "embed_convx_bn_beta", 
      "attrs": {
        "eps": "2e-05", 
        "fix_gamma": "False", 
        "momentum": "0.9", 
        "use_global_stats": "False"
      }, 
      "inputs": []
    }, 
    {
      "op": "null", 
      "name": "embed_convx_bn_moving_mean", 
      "attrs": {
        "__init__": "[\"zero\", {}]", 
        "eps": "2e-05", 
        "fix_gamma": "False", 
        "momentum": "0.9", 
        "use_global_stats": "False"
      }, 
      "inputs": []
    }, 
    {
      "op": "null", 
      "name": "embed_convx_bn_moving_var", 
      "attrs": {
        "__init__": "[\"one\", {}]", 
        "eps": "2e-05", 
        "fix_gamma": "False", 
        "momentum": "0.9", 
        "use_global_stats": "False"
      }, 
      "inputs": []
    }, 
    {
      "op": "BatchNorm", 
      "name": "embed_convx_bn", 
      "attrs": {
        "eps": "2e-05", 
        "fix_gamma": "False", 
        "momentum": "0.9", 
        "use_global_stats": "False"
      }, 
      "inputs": [[684, 0, 0], [685, 0, 0], [686, 0, 0], [687, 0, 1], [688, 0, 1]]
    }, 
    {
      "op": "null", 
      "name": "embed_convx_act_gamma", 
      "attrs": {
        "__init__": "[\"Constant\", {\"value\": 0.25}]", 
        "act_type": "prelu"
      }, 
      "inputs": []
    }, 
    {
      "op": "LeakyReLU", 
      "name": "embed_convx_act", 
      "attrs": {"act_type": "prelu"}, 
      "inputs": [[689, 0, 0], [690, 0, 0]]
    }, 
    {
      "op": "null", 
      "name": "embed_convx_depthwise_weight", 
      "attrs": {
        "kernel": "(7, 7)", 
        "no_bias": "True", 
        "num_filter": "1024", 
        "num_group": "128", 
        "pad": "(0, 0)", 
        "stride": "(1, 1)", 
        "workspace": "256"
      }, 
      "inputs": []
    }, 
    {
      "op": "Convolution", 
      "name": "embed_convx_depthwise", 
      "attrs": {
        "kernel": "(7, 7)", 
        "no_bias": "True", 
        "num_filter": "1024", 
        "num_group": "128", 
        "pad": "(0, 0)", 
        "stride": "(1, 1)", 
        "workspace": "256"
      }, 
      "inputs": [[691, 0, 0], [692, 0, 0]]
    }, 
    {
      "op": "null", 
      "name": "embed_convx_depthwise_bn_gamma", 
      "attrs": {
        "eps": "2e-05", 
        "fix_gamma": "False", 
        "momentum": "0.9", 
        "use_global_stats": "False"
      }, 
      "inputs": []
    }, 
    {
      "op": "null", 
      "name": "embed_convx_depthwise_bn_beta", 
      "attrs": {
        "eps": "2e-05", 
        "fix_gamma": "False", 
        "momentum": "0.9", 
        "use_global_stats": "False"
      }, 
      "inputs": []
    }, 
    {
      "op": "null", 
      "name": "embed_convx_depthwise_bn_moving_mean", 
      "attrs": {
        "__init__": "[\"zero\", {}]", 
        "eps": "2e-05", 
        "fix_gamma": "False", 
        "momentum": "0.9", 
        "use_global_stats": "False"
      }, 
      "inputs": []
    }, 
    {
      "op": "null", 
      "name": "embed_convx_depthwise_bn_moving_var", 
      "attrs": {
        "__init__": "[\"one\", {}]", 
        "eps": "2e-05", 
        "fix_gamma": "False", 
        "momentum": "0.9", 
        "use_global_stats": "False"
      }, 
      "inputs": []
    }, 
    {
      "op": "BatchNorm", 
      "name": "embed_convx_depthwise_bn", 
      "attrs": {
        "eps": "2e-05", 
        "fix_gamma": "False", 
        "momentum": "0.9", 
        "use_global_stats": "False"
      }, 
      "inputs": [[693, 0, 0], [694, 0, 0], [695, 0, 0], [696, 0, 1], [697, 0, 1]]
    }, 
    {
      "op": "null", 
      "name": "embed_convx_pointwise_weight", 
      "attrs": {
        "kernel": "(1, 1)", 
        "no_bias": "True", 
        "num_filter": "512", 
        "pad": "(0, 0)", 
        "stride": "(1, 1)", 
        "workspace": "256"
      }, 
      "inputs": []
    }, 
    {
      "op": "Convolution", 
      "name": "embed_convx_pointwise", 
      "attrs": {
        "kernel": "(1, 1)", 
        "no_bias": "True", 
        "num_filter": "512", 
        "pad": "(0, 0)", 
        "stride": "(1, 1)", 
        "workspace": "256"
      }, 
      "inputs": [[698, 0, 0], [699, 0, 0]]
    }, 
    {
      "op": "null", 
      "name": "embed_convx_pointwise_bn_gamma", 
      "attrs": {
        "eps": "2e-05", 
        "fix_gamma": "False", 
        "momentum": "0.9", 
        "use_global_stats": "False"
      }, 
      "inputs": []
    }, 
    {
      "op": "null", 
      "name": "embed_convx_pointwise_bn_beta", 
      "attrs": {
        "eps": "2e-05", 
        "fix_gamma": "False", 
        "momentum": "0.9", 
        "use_global_stats": "False"
      }, 
      "inputs": []
    }, 
    {
      "op": "null", 
      "name": "embed_convx_pointwise_bn_moving_mean", 
      "attrs": {
        "__init__": "[\"zero\", {}]", 
        "eps": "2e-05", 
        "fix_gamma": "False", 
        "momentum": "0.9", 
        "use_global_stats": "False"
      }, 
      "inputs": []
    }, 
    {
      "op": "null", 
      "name": "embed_convx_pointwise_bn_moving_var", 
      "attrs": {
        "__init__": "[\"one\", {}]", 
        "eps": "2e-05", 
        "fix_gamma": "False", 
        "momentum": "0.9", 
        "use_global_stats": "False"
      }, 
      "inputs": []
    }, 
    {
      "op": "BatchNorm", 
      "name": "embed_convx_pointwise_bn", 
      "attrs": {
        "eps": "2e-05", 
        "fix_gamma": "False", 
        "momentum": "0.9", 
        "use_global_stats": "False"
      }, 
      "inputs": [[700, 0, 0], [701, 0, 0], [702, 0, 0], [703, 0, 1], [704, 0, 1]]
    }, 
    {
      "op": "null", 
      "name": "embed_convx_pointwise_act_gamma", 
      "attrs": {
        "__init__": "[\"Constant\", {\"value\": 0.25}]", 
        "act_type": "prelu"
      }, 
      "inputs": []
    }, 
    {
      "op": "LeakyReLU", 
      "name": "embed_convx_pointwise_act", 
      "attrs": {"act_type": "prelu"}, 
      "inputs": [[705, 0, 0], [706, 0, 0]]
    }, 
    {
      "op": "null", 
      "name": "pre_fc1_weight", 
      "attrs": {"num_hidden": "512"}, 
      "inputs": []
    }, 
    {
      "op": "null", 
      "name": "pre_fc1_bias", 
      "attrs": {"num_hidden": "512"}, 
      "inputs": []
    }, 
    {
      "op": "FullyConnected", 
      "name": "pre_fc1", 
      "attrs": {"num_hidden": "512"}, 
      "inputs": [[707, 0, 0], [708, 0, 0], [709, 0, 0]]
    }, 
    {
      "op": "null", 
      "name": "fc1_gamma", 
      "attrs": {
        "eps": "2e-05", 
        "fix_gamma": "True", 
        "momentum": "0.9"
      }, 
      "inputs": []
    }, 
    {
      "op": "null", 
      "name": "fc1_beta", 
      "attrs": {
        "eps": "2e-05", 
        "fix_gamma": "True", 
        "momentum": "0.9"
      }, 
      "inputs": []
    }, 
    {
      "op": "null", 
      "name": "fc1_moving_mean", 
      "attrs": {
        "__init__": "[\"zero\", {}]", 
        "eps": "2e-05", 
        "fix_gamma": "True", 
        "momentum": "0.9"
      }, 
      "inputs": []
    }, 
    {
      "op": "null", 
      "name": "fc1_moving_var", 
      "attrs": {
        "__init__": "[\"one\", {}]", 
        "eps": "2e-05", 
        "fix_gamma": "True", 
        "momentum": "0.9"
      }, 
      "inputs": []
    }, 
    {
      "op": "BatchNorm", 
      "name": "fc1", 
      "attrs": {
        "eps": "2e-05", 
        "fix_gamma": "True", 
        "momentum": "0.9"
      }, 
      "inputs": [[710, 0, 0], [711, 0, 0], [712, 0, 0], [713, 0, 1], [714, 0, 1]]
    }
  ], 
  "arg_nodes": [
    0, 
    4, 
    6, 
    7, 
    8, 
    9, 
    11, 
    13, 
    15, 
    16, 
    17, 
    18, 
    20, 
    22, 
    24, 
    25, 
    26, 
    27, 
    29, 
    31, 
    33, 
    34, 
    35, 
    36, 
    38, 
    40, 
    42, 
    43, 
    44, 
    45, 
    47, 
    49, 
    50, 
    51, 
    52, 
    54, 
    56, 
    58, 
    59, 
    60, 
    61, 
    64, 
    66, 
    68, 
    69, 
    70, 
    71, 
    73, 
    75, 
    77, 
    78, 
    79, 
    80, 
    82, 
    84, 
    85, 
    86, 
    87, 
    89, 
    91, 
    93, 
    94, 
    95, 
    96, 
    99, 
    101, 
    103, 
    104, 
    105, 
    106, 
    108, 
    110, 
    112, 
    113, 
    114, 
    115, 
    117, 
    119, 
    120, 
    121, 
    122, 
    124, 
    126, 
    128, 
    129, 
    130, 
    131, 
    134, 
    136, 
    138, 
    139, 
    140, 
    141, 
    143, 
    145, 
    147, 
    148, 
    149, 
    150, 
    152, 
    154, 
    156, 
    157, 
    158, 
    159, 
    161, 
    163, 
    165, 
    166, 
    167, 
    168, 
    171, 
    173, 
    175, 
    176, 
    177, 
    178, 
    180, 
    182, 
    184, 
    185, 
    186, 
    187, 
    189, 
    191, 
    193, 
    194, 
    195, 
    196, 
    198, 
    200, 
    202, 
    203, 
    204, 
    205, 
    208, 
    210, 
    212, 
    213, 
    214, 
    215, 
    217, 
    219, 
    221, 
    222, 
    223, 
    224, 
    226, 
    228, 
    229, 
    230, 
    231, 
    233, 
    235, 
    237, 
    238, 
    239, 
    240, 
    243, 
    245, 
    247, 
    248, 
    249, 
    250, 
    252, 
    254, 
    256, 
    257, 
    258, 
    259, 
    261, 
    263, 
    264, 
    265, 
    266, 
    268, 
    270, 
    272, 
    273, 
    274, 
    275, 
    278, 
    280, 
    282, 
    283, 
    284, 
    285, 
    287, 
    289, 
    291, 
    292, 
    293, 
    294, 
    296, 
    298, 
    300, 
    301, 
    302, 
    303, 
    305, 
    307, 
    309, 
    310, 
    311, 
    312, 
    315, 
    317, 
    319, 
    320, 
    321, 
    322, 
    324, 
    326, 
    328, 
    329, 
    330, 
    331, 
    333, 
    335, 
    337, 
    338, 
    339, 
    340, 
    342, 
    344, 
    346, 
    347, 
    348, 
    349, 
    352, 
    354, 
    356, 
    357, 
    358, 
    359, 
    361, 
    363, 
    365, 
    366, 
    367, 
    368, 
    370, 
    372, 
    374, 
    375, 
    376, 
    377, 
    379, 
    381, 
    383, 
    384, 
    385, 
    386, 
    389, 
    391, 
    393, 
    394, 
    395, 
    396, 
    398, 
    400, 
    402, 
    403, 
    404, 
    405, 
    407, 
    409, 
    411, 
    412, 
    413, 
    414, 
    416, 
    418, 
    420, 
    421, 
    422, 
    423, 
    426, 
    428, 
    430, 
    431, 
    432, 
    433, 
    435, 
    437, 
    439, 
    440, 
    441, 
    442, 
    444, 
    446, 
    448, 
    449, 
    450, 
    451, 
    453, 
    455, 
    457, 
    458, 
    459, 
    460, 
    463, 
    465, 
    467, 
    468, 
    469, 
    470, 
    472, 
    474, 
    476, 
    477, 
    478, 
    479, 
    481, 
    483, 
    485, 
    486, 
    487, 
    488, 
    490, 
    492, 
    494, 
    495, 
    496, 
    497, 
    500, 
    502, 
    504, 
    505, 
    506, 
    507, 
    509, 
    511, 
    513, 
    514, 
    515, 
    516, 
    518, 
    520, 
    521, 
    522, 
    523, 
    525, 
    527, 
    529, 
    530, 
    531, 
    532, 
    535, 
    537, 
    539, 
    540, 
    541, 
    542, 
    544, 
    546, 
    548, 
    549, 
    550, 
    551, 
    553, 
    555, 
    556, 
    557, 
    558, 
    560, 
    562, 
    564, 
    565, 
    566, 
    567, 
    570, 
    572, 
    574, 
    575, 
    576, 
    577, 
    579, 
    581, 
    583, 
    584, 
    585, 
    586, 
    588, 
    590, 
    592, 
    593, 
    594, 
    595, 
    597, 
    599, 
    601, 
    602, 
    603, 
    604, 
    607, 
    609, 
    611, 
    612, 
    613, 
    614, 
    616, 
    618, 
    620, 
    621, 
    622, 
    623, 
    625, 
    627, 
    629, 
    630, 
    631, 
    632, 
    634, 
    636, 
    638, 
    639, 
    640, 
    641, 
    644, 
    646, 
    648, 
    649, 
    650, 
    651, 
    653, 
    655, 
    657, 
    658, 
    659, 
    660, 
    662, 
    664, 
    666, 
    667, 
    668, 
    669, 
    671, 
    673, 
    675, 
    676, 
    677, 
    678, 
    681, 
    683, 
    685, 
    686, 
    687, 
    688, 
    690, 
    692, 
    694, 
    695, 
    696, 
    697, 
    699, 
    701, 
    702, 
    703, 
    704, 
    706, 
    708, 
    709, 
    711, 
    712, 
    713, 
    714
  ], 
  "node_row_ptr": [
    0, 
    1, 
    2, 
    3, 
    4, 
    5, 
    6, 
    7, 
    8, 
    9, 
    10, 
    13, 
    14, 
    15, 
    16, 
    17, 
    18, 
    19, 
    20, 
    21, 
    24, 
    25, 
    26, 
    27, 
    28, 
    29, 
    30, 
    31, 
    32, 
    35, 
    36, 
    37, 
    38, 
    39, 
    40, 
    41, 
    42, 
    43, 
    46, 
    47, 
    48, 
    49, 
    50, 
    51, 
    52, 
    53, 
    54, 
    57, 
    58, 
    59, 
    60, 
    61, 
    62, 
    63, 
    66, 
    67, 
    68, 
    69, 
    70, 
    71, 
    72, 
    73, 
    74, 
    77, 
    78, 
    79, 
    80, 
    81, 
    82, 
    83, 
    84, 
    85, 
    86, 
    89, 
    90, 
    91, 
    92, 
    93, 
    94, 
    95, 
    96, 
    97, 
    100, 
    101, 
    102, 
    103, 
    104, 
    105, 
    106, 
    109, 
    110, 
    111, 
    112, 
    113, 
    114, 
    115, 
    116, 
    117, 
    120, 
    121, 
    122, 
    123, 
    124, 
    125, 
    126, 
    127, 
    128, 
    129, 
    132, 
    133, 
    134, 
    135, 
    136, 
    137, 
    138, 
    139, 
    140, 
    143, 
    144, 
    145, 
    146, 
    147, 
    148, 
    149, 
    152, 
    153, 
    154, 
    155, 
    156, 
    157, 
    158, 
    159, 
    160, 
    163, 
    164, 
    165, 
    166, 
    167, 
    168, 
    169, 
    170, 
    171, 
    172, 
    175, 
    176, 
    177, 
    178, 
    179, 
    180, 
    181, 
    182, 
    183, 
    186, 
    187, 
    188, 
    189, 
    190, 
    191, 
    192, 
    193, 
    194, 
    197, 
    198, 
    199, 
    200, 
    201, 
    202, 
    203, 
    204, 
    205, 
    208, 
    209, 
    210, 
    211, 
    212, 
    213, 
    214, 
    215, 
    216, 
    217, 
    220, 
    221, 
    222, 
    223, 
    224, 
    225, 
    226, 
    227, 
    228, 
    231, 
    232, 
    233, 
    234, 
    235, 
    236, 
    237, 
    238, 
    239, 
    242, 
    243, 
    244, 
    245, 
    246, 
    247, 
    248, 
    249, 
    250, 
    253, 
    254, 
    255, 
    256, 
    257, 
    258, 
    259, 
    260, 
    261, 
    262, 
    265, 
    266, 
    267, 
    268, 
    269, 
    270, 
    271, 
    272, 
    273, 
    276, 
    277, 
    278, 
    279, 
    280, 
    281, 
    282, 
    285, 
    286, 
    287, 
    288, 
    289, 
    290, 
    291, 
    292, 
    293, 
    296, 
    297, 
    298, 
    299, 
    300, 
    301, 
    302, 
    303, 
    304, 
    305, 
    308, 
    309, 
    310, 
    311, 
    312, 
    313, 
    314, 
    315, 
    316, 
    319, 
    320, 
    321, 
    322, 
    323, 
    324, 
    325, 
    328, 
    329, 
    330, 
    331, 
    332, 
    333, 
    334, 
    335, 
    336, 
    339, 
    340, 
    341, 
    342, 
    343, 
    344, 
    345, 
    346, 
    347, 
    348, 
    351, 
    352, 
    353, 
    354, 
    355, 
    356, 
    357, 
    358, 
    359, 
    362, 
    363, 
    364, 
    365, 
    366, 
    367, 
    368, 
    369, 
    370, 
    373, 
    374, 
    375, 
    376, 
    377, 
    378, 
    379, 
    380, 
    381, 
    384, 
    385, 
    386, 
    387, 
    388, 
    389, 
    390, 
    391, 
    392, 
    393, 
    396, 
    397, 
    398, 
    399, 
    400, 
    401, 
    402, 
    403, 
    404, 
    407, 
    408, 
    409, 
    410, 
    411, 
    412, 
    413, 
    414, 
    415, 
    418, 
    419, 
    420, 
    421, 
    422, 
    423, 
    424, 
    425, 
    426, 
    429, 
    430, 
    431, 
    432, 
    433, 
    434, 
    435, 
    436, 
    437, 
    438, 
    441, 
    442, 
    443, 
    444, 
    445, 
    446, 
    447, 
    448, 
    449, 
    452, 
    453, 
    454, 
    455, 
    456, 
    457, 
    458, 
    459, 
    460, 
    463, 
    464, 
    465, 
    466, 
    467, 
    468, 
    469, 
    470, 
    471, 
    474, 
    475, 
    476, 
    477, 
    478, 
    479, 
    480, 
    481, 
    482, 
    483, 
    486, 
    487, 
    488, 
    489, 
    490, 
    491, 
    492, 
    493, 
    494, 
    497, 
    498, 
    499, 
    500, 
    501, 
    502, 
    503, 
    504, 
    505, 
    508, 
    509, 
    510, 
    511, 
    512, 
    513, 
    514, 
    515, 
    516, 
    519, 
    520, 
    521, 
    522, 
    523, 
    524, 
    525, 
    526, 
    527, 
    528, 
    531, 
    532, 
    533, 
    534, 
    535, 
    536, 
    537, 
    538, 
    539, 
    542, 
    543, 
    544, 
    545, 
    546, 
    547, 
    548, 
    549, 
    550, 
    553, 
    554, 
    555, 
    556, 
    557, 
    558, 
    559, 
    560, 
    561, 
    564, 
    565, 
    566, 
    567, 
    568, 
    569, 
    570, 
    571, 
    572, 
    573, 
    576, 
    577, 
    578, 
    579, 
    580, 
    581, 
    582, 
    583, 
    584, 
    587, 
    588, 
    589, 
    590, 
    591, 
    592, 
    593, 
    594, 
    595, 
    598, 
    599, 
    600, 
    601, 
    602, 
    603, 
    604, 
    605, 
    606, 
    609, 
    610, 
    611, 
    612, 
    613, 
    614, 
    615, 
    616, 
    617, 
    618, 
    621, 
    622, 
    623, 
    624, 
    625, 
    626, 
    627, 
    628, 
    629, 
    632, 
    633, 
    634, 
    635, 
    636, 
    637, 
    638, 
    641, 
    642, 
    643, 
    644, 
    645, 
    646, 
    647, 
    648, 
    649, 
    652, 
    653, 
    654, 
    655, 
    656, 
    657, 
    658, 
    659, 
    660, 
    661, 
    664, 
    665, 
    666, 
    667, 
    668, 
    669, 
    670, 
    671, 
    672, 
    675, 
    676, 
    677, 
    678, 
    679, 
    680, 
    681, 
    684, 
    685, 
    686, 
    687, 
    688, 
    689, 
    690, 
    691, 
    692, 
    695, 
    696, 
    697, 
    698, 
    699, 
    700, 
    701, 
    702, 
    703, 
    704, 
    707, 
    708, 
    709, 
    710, 
    711, 
    712, 
    713, 
    714, 
    715, 
    718, 
    719, 
    720, 
    721, 
    722, 
    723, 
    724, 
    725, 
    726, 
    729, 
    730, 
    731, 
    732, 
    733, 
    734, 
    735, 
    736, 
    737, 
    740, 
    741, 
    742, 
    743, 
    744, 
    745, 
    746, 
    747, 
    748, 
    749, 
    752, 
    753, 
    754, 
    755, 
    756, 
    757, 
    758, 
    759, 
    760, 
    763, 
    764, 
    765, 
    766, 
    767, 
    768, 
    769, 
    770, 
    771, 
    774, 
    775, 
    776, 
    777, 
    778, 
    779, 
    780, 
    781, 
    782, 
    785, 
    786, 
    787, 
    788, 
    789, 
    790, 
    791, 
    792, 
    793, 
    794, 
    797, 
    798, 
    799, 
    800, 
    801, 
    802, 
    803, 
    804, 
    805, 
    808, 
    809, 
    810, 
    811, 
    812, 
    813, 
    814, 
    815, 
    816, 
    819, 
    820, 
    821, 
    822, 
    823, 
    824, 
    825, 
    826, 
    827, 
    830, 
    831, 
    832, 
    833, 
    834, 
    835, 
    836, 
    837, 
    838, 
    839, 
    842, 
    843, 
    844, 
    845, 
    846, 
    847, 
    848, 
    849, 
    850, 
    853, 
    854, 
    855, 
    856, 
    857, 
    858, 
    859, 
    862, 
    863, 
    864, 
    865, 
    866, 
    867, 
    868, 
    869, 
    870, 
    871, 
    874
  ], 
  "heads": [[715, 0, 0]], 
  "attrs": {"mxnet_version": ["int", 10501]}
}